…
I0829 14:58:06.788918  2346 net.cpp:322] The NetState phase (0) differed from the phase (1) specified by a rule in layer accuracy
I0829 14:58:06.789927  2346 net.cpp:58] Initializing net from parameters: 
name: "AlexNet"
state {
  phase: TRAIN
  level: 0
  stage: ""
}
layer {
  name: "data"
  type: "Data"
  top: "data"
  top: "label"
  include {
    phase: TRAIN
  }
  transform_param {
    mirror: true
    crop_size: 227
    mean_file: "/home/ch/data/imagenet_mean.binaryproto"
  }
  data_param {
    source: "/home/ch/data/lmdb/train_lmdb"
    batch_size: 64
    backend: LMDB
  }
}
layer {
  name: "conv1"
  type: "Convolution"
  bottom: "data"
  top: "conv1"
  param {
    lr_mult: 1
    decay_mult: 1
  }
  param {
    lr_mult: 2
    decay_mult: 0
  }
  convolution_param {
    num_output: 96
    kernel_size: 11
    stride: 4
    weight_filler {
      type: "gaussian"
      std: 0.01
    }
    bias_filler {
      type: "constant"
      value: 0
    }
  }
}
layer {
  name: "relu1"
  type: "ReLU"
  bottom: "conv1"
  top: "conv1"
}
layer {
  name: "norm1"
  type: "LRN"
  bottom: "conv1"
  top: "norm1"
  lrn_param {
    local_size: 5
    alpha: 0.0001
    beta: 0.75
  }
}
layer {
  name: "pool1"
  type: "Pooling"
  bottom: "norm1"
  top: "pool1"
  pooling_param {
    pool: MAX
    kernel_size: 3
    stride: 2
  }
}
layer {
  name: "conv2"
  type: "Convolution"
  bottom: "pool1"
  top: "conv2"
  param {
    lr_mult: 1
    decay_mult: 1
  }
  param {
    lr_mult: 2
    decay_mult: 0
  }
  convolution_param {
    num_output: 256
    pad: 2
    kernel_size: 5
    group: 2
    weight_filler {
      type: "gaussian"
      std: 0.01
    }
    bias_filler {
      type: "constant"
      value: 0.1
    }
  }
}
layer {
  name: "relu2"
  type: "ReLU"
  bottom: "conv2"
  top: "conv2"
}
layer {
  name: "norm2"
  type: "LRN"
  bottom: "conv2"
  top: "norm2"
  lrn_param {
    local_size: 5
    alpha: 0.0001
    beta: 0.75
  }
}
layer {
  name: "pool2"
  type: "Pooling"
  bottom: "norm2"
  top: "pool2"
  pooling_param {
    pool: MAX
    kernel_size: 3
    stride: 2
  }
}
layer {
  name: "conv3"
  type: "Convolution"
  bottom: "pool2"
  top: "conv3"
  param {
    lr_mult: 1
    decay_mult: 1
  }
  param {
    lr_mult: 2
    decay_mult: 0
  }
  convolution_param {
    num_output: 384
    pad: 1
    kernel_size: 3
    weight_filler {
      type: "gaussian"
      std: 0.01
    }
    bias_filler {
      type: "constant"
      value: 0
    }
  }
}
layer {
  name: "relu3"
  type: "ReLU"
  bottom: "conv3"
  top: "conv3"
}
layer {
  name: "conv4"
  type: "Convolution"
  bottom: "conv3"
  top: "conv4"
  param {
    lr_mult: 1
    decay_mult: 1
  }
  param {
    lr_mult: 2
    decay_mult: 0
  }
  convolution_param {
    num_output: 384
    pad: 1
    kernel_size: 3
    group: 2
    weight_filler {
      type: "gaussian"
      std: 0.01
    }
    bias_filler {
      type: "constant"
      value: 0.1
    }
  }
}
layer {
  name: "relu4"
  type: "ReLU"
  bottom: "conv4"
  top: "conv4"
}
layer {
  name: "conv5"
  type: "Convolution"
  bottom: "conv4"
  top: "conv5"
  param {
    lr_mult: 1
    decay_mult: 1
  }
  param {
    lr_mult: 2
    decay_mult: 0
  }
  convolution_param {
    num_output: 256
    pad: 1
    kernel_size: 3
    group: 2
    weight_filler {
      type: "gaussian"
      std: 0.01
    }
    bias_filler {
      type: "constant"
      value: 0.1
    }
  }
}
layer {
  name: "relu5"
  type: "ReLU"
  bottom: "conv5"
  top: "conv5"
}
layer {
  name: "pool5"
  type: "Pooling"
  bottom: "conv5"
  top: "pool5"
  pooling_param {
    pool: MAX
    kernel_size: 3
    stride: 2
  }
}
layer {
  name: "fc6"
  type: "InnerProduct"
  bottom: "pool5"
  top: "fc6"
  param {
    lr_mult: 1
    decay_mult: 1
  }
  param {
    lr_mult: 2
    decay_mult: 0
  }
  inner_product_param {
    num_output: 4096
    weight_filler {
      type: "gaussian"
      std: 0.005
    }
    bias_filler {
      type: "constant"
      value: 0.1
    }
  }
}
layer {
  name: "relu6"
  type: "ReLU"
  bottom: "fc6"
  top: "fc6"
}
layer {
  name: "drop6"
  type: "Dropout"
  bottom: "fc6"
  top: "fc6"
  dropout_param {
    dropout_ratio: 0.5
  }
}
layer {
  name: "fc7"
  type: "InnerProduct"
  bottom: "fc6"
  top: "fc7"
  param {
    lr_mult: 1
    decay_mult: 1
  }
  param {
    lr_mult: 2
    decay_mult: 0
  }
  inner_product_param {
    num_output: 4096
    weight_filler {
      type: "gaussian"
      std: 0.005
    }
    bias_filler {
      type: "constant"
      value: 0.1
    }
  }
}
layer {
  name: "relu7"
  type: "ReLU"
  bottom: "fc7"
  top: "fc7"
}
layer {
  name: "drop7"
  type: "Dropout"
  bottom: "fc7"
  top: "fc7"
  dropout_param {
    dropout_ratio: 0.5
  }
}
layer {
  name: "fc8"
  type: "InnerProduct"
  bottom: "fc7"
  top: "fc8"
  param {
    lr_mult: 1
    decay_mult: 1
  }
  param {
    lr_mult: 2
    decay_mult: 0
  }
  inner_product_param {
    num_output: 1000
    weight_filler {
      type: "gaussian"
      std: 0.01
    }
    bias_filler {
      type: "constant"
      value: 0
    }
  }
}
layer {
  name: "loss"
  type: "SoftmaxWithLoss"
  bottom: "fc8"
  bottom: "label"
  top: "loss"
}
I0829 14:58:06.790447  2346 layer_factory.hpp:77] Creating layer data
I0829 14:58:06.791625  2346 net.cpp:100] Creating Layer data
I0829 14:58:06.791710  2346 net.cpp:408] data -> data
I0829 14:58:06.791802  2346 net.cpp:408] data -> label
I0829 14:58:06.791903  2346 data_transformer.cpp:27] Loading mean file from: /home/ch/data/imagenet_mean.binaryproto
I0829 14:58:06.883574  2362 db_lmdb.cpp:35] Opened lmdb /home/ch/data/lmdb/train_lmdb
I0829 14:58:07.399679  2346 data_layer.cpp:41] output data size: 64,3,227,227
I0829 14:58:07.738826  2346 net.cpp:150] Setting up data
I0829 14:58:07.738940  2346 net.cpp:157] Top shape: 64 3 227 227 (9893568)
I0829 14:58:07.738975  2346 net.cpp:157] Top shape: 64 (64)
I0829 14:58:07.738994  2346 net.cpp:165] Memory required for data: 39574528
I0829 14:58:07.739032  2346 layer_factory.hpp:77] Creating layer conv1
I0829 14:58:07.739109  2346 net.cpp:100] Creating Layer conv1
I0829 14:58:07.739140  2346 net.cpp:434] conv1 <- data
I0829 14:58:07.739197  2346 net.cpp:408] conv1 -> conv1
I0829 14:58:16.048907  2346 net.cpp:150] Setting up conv1
I0829 14:58:16.048998  2346 net.cpp:157] Top shape: 64 96 55 55 (18585600)
I0829 14:58:16.049021  2346 net.cpp:165] Memory required for data: 113916928
I0829 14:58:16.049100  2346 layer_factory.hpp:77] Creating layer relu1
I0829 14:58:16.049145  2346 net.cpp:100] Creating Layer relu1
I0829 14:58:16.049167  2346 net.cpp:434] relu1 <- conv1
I0829 14:58:16.049206  2346 net.cpp:395] relu1 -> conv1 (in-place)
I0829 14:58:16.051599  2346 net.cpp:150] Setting up relu1
I0829 14:58:16.051669  2346 net.cpp:157] Top shape: 64 96 55 55 (18585600)
I0829 14:58:16.051690  2346 net.cpp:165] Memory required for data: 188259328
I0829 14:58:16.051714  2346 layer_factory.hpp:77] Creating layer norm1
I0829 14:58:16.051765  2346 net.cpp:100] Creating Layer norm1
I0829 14:58:16.051790  2346 net.cpp:434] norm1 <- conv1
I0829 14:58:16.051827  2346 net.cpp:408] norm1 -> norm1
I0829 14:58:16.054064  2346 net.cpp:150] Setting up norm1
I0829 14:58:16.054129  2346 net.cpp:157] Top shape: 64 96 55 55 (18585600)
I0829 14:58:16.054149  2346 net.cpp:165] Memory required for data: 262601728
I0829 14:58:16.054172  2346 layer_factory.hpp:77] Creating layer pool1
I0829 14:58:16.054213  2346 net.cpp:100] Creating Layer pool1
I0829 14:58:16.054234  2346 net.cpp:434] pool1 <- norm1
I0829 14:58:16.054339  2346 net.cpp:408] pool1 -> pool1
I0829 14:58:16.054641  2346 net.cpp:150] Setting up pool1
I0829 14:58:16.054683  2346 net.cpp:157] Top shape: 64 96 27 27 (4478976)
I0829 14:58:16.054703  2346 net.cpp:165] Memory required for data: 280517632
I0829 14:58:16.054723  2346 layer_factory.hpp:77] Creating layer conv2
I0829 14:58:16.054777  2346 net.cpp:100] Creating Layer conv2
I0829 14:58:16.054800  2346 net.cpp:434] conv2 <- pool1
I0829 14:58:16.054839  2346 net.cpp:408] conv2 -> conv2
I0829 14:58:16.095111  2346 net.cpp:150] Setting up conv2
I0829 14:58:16.095346  2346 net.cpp:157] Top shape: 64 256 27 27 (11943936)
I0829 14:58:16.095458  2346 net.cpp:165] Memory required for data: 328293376
I0829 14:58:16.095612  2346 layer_factory.hpp:77] Creating layer relu2
I0829 14:58:16.095738  2346 net.cpp:100] Creating Layer relu2
I0829 14:58:16.095840  2346 net.cpp:434] relu2 <- conv2
I0829 14:58:16.095958  2346 net.cpp:395] relu2 -> conv2 (in-place)
I0829 14:58:16.100383  2346 net.cpp:150] Setting up relu2
I0829 14:58:16.100615  2346 net.cpp:157] Top shape: 64 256 27 27 (11943936)
I0829 14:58:16.100733  2346 net.cpp:165] Memory required for data: 376069120
I0829 14:58:16.100826  2346 layer_factory.hpp:77] Creating layer norm2
I0829 14:58:16.100951  2346 net.cpp:100] Creating Layer norm2
I0829 14:58:16.101053  2346 net.cpp:434] norm2 <- conv2
I0829 14:58:16.101178  2346 net.cpp:408] norm2 -> norm2
I0829 14:58:16.104049  2346 net.cpp:150] Setting up norm2
I0829 14:58:16.104267  2346 net.cpp:157] Top shape: 64 256 27 27 (11943936)
I0829 14:58:16.104387  2346 net.cpp:165] Memory required for data: 423844864
I0829 14:58:16.104496  2346 layer_factory.hpp:77] Creating layer pool2
I0829 14:58:16.104636  2346 net.cpp:100] Creating Layer pool2
I0829 14:58:16.104748  2346 net.cpp:434] pool2 <- norm2
I0829 14:58:16.104866  2346 net.cpp:408] pool2 -> pool2
I0829 14:58:16.105206  2346 net.cpp:150] Setting up pool2
I0829 14:58:16.105341  2346 net.cpp:157] Top shape: 64 256 13 13 (2768896)
I0829 14:58:16.105438  2346 net.cpp:165] Memory required for data: 434920448
I0829 14:58:16.105533  2346 layer_factory.hpp:77] Creating layer conv3
I0829 14:58:16.105674  2346 net.cpp:100] Creating Layer conv3
I0829 14:58:16.105783  2346 net.cpp:434] conv3 <- pool2
I0829 14:58:16.105907  2346 net.cpp:408] conv3 -> conv3
I0829 14:58:16.200893  2346 net.cpp:150] Setting up conv3
I0829 14:58:16.201128  2346 net.cpp:157] Top shape: 64 384 13 13 (4153344)
I0829 14:58:16.201246  2346 net.cpp:165] Memory required for data: 451533824
I0829 14:58:16.201386  2346 layer_factory.hpp:77] Creating layer relu3
I0829 14:58:16.201524  2346 net.cpp:100] Creating Layer relu3
I0829 14:58:16.201635  2346 net.cpp:434] relu3 <- conv3
I0829 14:58:16.201752  2346 net.cpp:395] relu3 -> conv3 (in-place)
I0829 14:58:16.204473  2346 net.cpp:150] Setting up relu3
I0829 14:58:16.204686  2346 net.cpp:157] Top shape: 64 384 13 13 (4153344)
I0829 14:58:16.204797  2346 net.cpp:165] Memory required for data: 468147200
I0829 14:58:16.204900  2346 layer_factory.hpp:77] Creating layer conv4
I0829 14:58:16.205042  2346 net.cpp:100] Creating Layer conv4
I0829 14:58:16.205154  2346 net.cpp:434] conv4 <- conv3
I0829 14:58:16.205277  2346 net.cpp:408] conv4 -> conv4
I0829 14:58:16.266105  2346 net.cpp:150] Setting up conv4
I0829 14:58:16.266361  2346 net.cpp:157] Top shape: 64 384 13 13 (4153344)
I0829 14:58:16.266486  2346 net.cpp:165] Memory required for data: 484760576
I0829 14:58:16.266624  2346 layer_factory.hpp:77] Creating layer relu4
I0829 14:58:16.266747  2346 net.cpp:100] Creating Layer relu4
I0829 14:58:16.266856  2346 net.cpp:434] relu4 <- conv4
I0829 14:58:16.266971  2346 net.cpp:395] relu4 -> conv4 (in-place)
I0829 14:58:16.271576  2346 net.cpp:150] Setting up relu4
I0829 14:58:16.271811  2346 net.cpp:157] Top shape: 64 384 13 13 (4153344)
I0829 14:58:16.271927  2346 net.cpp:165] Memory required for data: 501373952
I0829 14:58:16.272047  2346 layer_factory.hpp:77] Creating layer conv5
I0829 14:58:16.272210  2346 net.cpp:100] Creating Layer conv5
I0829 14:58:16.272383  2346 net.cpp:434] conv5 <- conv4
I0829 14:58:16.272522  2346 net.cpp:408] conv5 -> conv5
I0829 14:58:16.347824  2346 net.cpp:150] Setting up conv5
I0829 14:58:16.348045  2346 net.cpp:157] Top shape: 64 256 13 13 (2768896)
I0829 14:58:16.348156  2346 net.cpp:165] Memory required for data: 512449536
I0829 14:58:16.348295  2346 layer_factory.hpp:77] Creating layer relu5
I0829 14:58:16.348426  2346 net.cpp:100] Creating Layer relu5
I0829 14:58:16.348531  2346 net.cpp:434] relu5 <- conv5
I0829 14:58:16.348829  2346 net.cpp:395] relu5 -> conv5 (in-place)
I0829 14:58:16.351522  2346 net.cpp:150] Setting up relu5
I0829 14:58:16.351908  2346 net.cpp:157] Top shape: 64 256 13 13 (2768896)
I0829 14:58:16.352150  2346 net.cpp:165] Memory required for data: 523525120
I0829 14:58:16.352383  2346 layer_factory.hpp:77] Creating layer pool5
I0829 14:58:16.352632  2346 net.cpp:100] Creating Layer pool5
I0829 14:58:16.352871  2346 net.cpp:434] pool5 <- conv5
I0829 14:58:16.353132  2346 net.cpp:408] pool5 -> pool5
I0829 14:58:16.353669  2346 net.cpp:150] Setting up pool5
I0829 14:58:16.353951  2346 net.cpp:157] Top shape: 64 256 6 6 (589824)
I0829 14:58:16.354183  2346 net.cpp:165] Memory required for data: 525884416
I0829 14:58:16.354418  2346 layer_factory.hpp:77] Creating layer fc6
I0829 14:58:16.354691  2346 net.cpp:100] Creating Layer fc6
I0829 14:58:16.354955  2346 net.cpp:434] fc6 <- pool5
I0829 14:58:16.355262  2346 net.cpp:408] fc6 -> fc6
I0829 14:58:18.926210  2346 net.cpp:150] Setting up fc6
I0829 14:58:18.926297  2346 net.cpp:157] Top shape: 64 4096 (262144)
I0829 14:58:18.926317  2346 net.cpp:165] Memory required for data: 526932992
I0829 14:58:18.926357  2346 layer_factory.hpp:77] Creating layer relu6
I0829 14:58:18.926393  2346 net.cpp:100] Creating Layer relu6
I0829 14:58:18.926412  2346 net.cpp:434] relu6 <- fc6
I0829 14:58:18.926455  2346 net.cpp:395] relu6 -> fc6 (in-place)
I0829 14:58:18.928552  2346 net.cpp:150] Setting up relu6
I0829 14:58:18.928617  2346 net.cpp:157] Top shape: 64 4096 (262144)
I0829 14:58:18.928637  2346 net.cpp:165] Memory required for data: 527981568
I0829 14:58:18.928659  2346 layer_factory.hpp:77] Creating layer drop6
I0829 14:58:18.928702  2346 net.cpp:100] Creating Layer drop6
I0829 14:58:18.928725  2346 net.cpp:434] drop6 <- fc6
I0829 14:58:18.928755  2346 net.cpp:395] drop6 -> fc6 (in-place)
I0829 14:58:18.928952  2346 net.cpp:150] Setting up drop6
I0829 14:58:18.928992  2346 net.cpp:157] Top shape: 64 4096 (262144)
I0829 14:58:18.929009  2346 net.cpp:165] Memory required for data: 529030144
I0829 14:58:18.929029  2346 layer_factory.hpp:77] Creating layer fc7
I0829 14:58:18.929065  2346 net.cpp:100] Creating Layer fc7
I0829 14:58:18.929085  2346 net.cpp:434] fc7 <- fc6
I0829 14:58:18.929123  2346 net.cpp:408] fc7 -> fc7
I0829 14:58:20.102509  2346 net.cpp:150] Setting up fc7
I0829 14:58:20.102635  2346 net.cpp:157] Top shape: 64 4096 (262144)
I0829 14:58:20.102664  2346 net.cpp:165] Memory required for data: 530078720
I0829 14:58:20.102715  2346 layer_factory.hpp:77] Creating layer relu7
I0829 14:58:20.102865  2346 net.cpp:100] Creating Layer relu7
I0829 14:58:20.102944  2346 net.cpp:434] relu7 <- fc7
I0829 14:58:20.103025  2346 net.cpp:395] relu7 -> fc7 (in-place)
I0829 14:58:20.105878  2346 net.cpp:150] Setting up relu7
I0829 14:58:20.105970  2346 net.cpp:157] Top shape: 64 4096 (262144)
I0829 14:58:20.105994  2346 net.cpp:165] Memory required for data: 531127296
I0829 14:58:20.106020  2346 layer_factory.hpp:77] Creating layer drop7
I0829 14:58:20.106058  2346 net.cpp:100] Creating Layer drop7
I0829 14:58:20.106163  2346 net.cpp:434] drop7 <- fc7
I0829 14:58:20.106253  2346 net.cpp:395] drop7 -> fc7 (in-place)
I0829 14:58:20.106524  2346 net.cpp:150] Setting up drop7
I0829 14:58:20.106580  2346 net.cpp:157] Top shape: 64 4096 (262144)
I0829 14:58:20.106600  2346 net.cpp:165] Memory required for data: 532175872
I0829 14:58:20.106617  2346 layer_factory.hpp:77] Creating layer fc8
I0829 14:58:20.106655  2346 net.cpp:100] Creating Layer fc8
I0829 14:58:20.106762  2346 net.cpp:434] fc8 <- fc7
I0829 14:58:20.106904  2346 net.cpp:408] fc8 -> fc8
I0829 14:58:20.408836  2346 net.cpp:150] Setting up fc8
I0829 14:58:20.409364  2346 net.cpp:157] Top shape: 64 1000 (64000)
I0829 14:58:20.409670  2346 net.cpp:165] Memory required for data: 532431872
I0829 14:58:20.409978  2346 layer_factory.hpp:77] Creating layer loss
I0829 14:58:20.410286  2346 net.cpp:100] Creating Layer loss
I0829 14:58:20.410557  2346 net.cpp:434] loss <- fc8
I0829 14:58:20.410830  2346 net.cpp:434] loss <- label
I0829 14:58:20.411113  2346 net.cpp:408] loss -> loss
I0829 14:58:20.411463  2346 layer_factory.hpp:77] Creating layer loss
…
I0829 14:58:20.434113  2346 net.cpp:322] The NetState phase (1) differed from the phase (0) specified by a rule in layer data
I0829 14:58:20.446588  2346 net.cpp:58] Initializing net from parameters: 
name: "AlexNet"
state {
  phase: TEST
}
layer {
  name: "data"
  type: "Data"
  top: "data"
  top: "label"
  include {
    phase: TEST
  }
  transform_param {
    mirror: false
    crop_size: 227
    mean_file: "/home/ch/data/imagenet_mean.binaryproto"
  }
  data_param {
    source: "/home/ch/data/lmdb/val_lmdb"
    batch_size: 16
    backend: LMDB
  }
}
layer {
  name: "conv1"
  type: "Convolution"
  bottom: "data"
  top: "conv1"
  param {
    lr_mult: 1
    decay_mult: 1
  }
  param {
    lr_mult: 2
    decay_mult: 0
  }
  convolution_param {
    num_output: 96
    kernel_size: 11
    stride: 4
    weight_filler {
      type: "gaussian"
      std: 0.01
    }
    bias_filler {
      type: "constant"
      value: 0
    }
  }
}
layer {
  name: "relu1"
  type: "ReLU"
  bottom: "conv1"
  top: "conv1"
}
layer {
  name: "norm1"
  type: "LRN"
  bottom: "conv1"
  top: "norm1"
  lrn_param {
    local_size: 5
    alpha: 0.0001
    beta: 0.75
  }
}
layer {
  name: "pool1"
  type: "Pooling"
  bottom: "norm1"
  top: "pool1"
  pooling_param {
    pool: MAX
    kernel_size: 3
    stride: 2
  }
}
layer {
  name: "conv2"
  type: "Convolution"
  bottom: "pool1"
  top: "conv2"
  param {
    lr_mult: 1
    decay_mult: 1
  }
  param {
    lr_mult: 2
    decay_mult: 0
  }
  convolution_param {
    num_output: 256
    pad: 2
    kernel_size: 5
    group: 2
    weight_filler {
      type: "gaussian"
      std: 0.01
    }
    bias_filler {
      type: "constant"
      value: 0.1
    }
  }
}
layer {
  name: "relu2"
  type: "ReLU"
  bottom: "conv2"
  top: "conv2"
}
layer {
  name: "norm2"
  type: "LRN"
  bottom: "conv2"
  top: "norm2"
  lrn_param {
    local_size: 5
    alpha: 0.0001
    beta: 0.75
  }
}
layer {
  name: "pool2"
  type: "Pooling"
  bottom: "norm2"
  top: "pool2"
  pooling_param {
    pool: MAX
    kernel_size: 3
    stride: 2
  }
}
layer {
  name: "conv3"
  type: "Convolution"
  bottom: "pool2"
  top: "conv3"
  param {
    lr_mult: 1
    decay_mult: 1
  }
  param {
    lr_mult: 2
    decay_mult: 0
  }
  convolution_param {
    num_output: 384
    pad: 1
    kernel_size: 3
    weight_filler {
      type: "gaussian"
      std: 0.01
    }
    bias_filler {
      type: "constant"
      value: 0
    }
  }
}
layer {
  name: "relu3"
  type: "ReLU"
  bottom: "conv3"
  top: "conv3"
}
layer {
  name: "conv4"
  type: "Convolution"
  bottom: "conv3"
  top: "conv4"
  param {
    lr_mult: 1
    decay_mult: 1
  }
  param {
    lr_mult: 2
    decay_mult: 0
  }
  convolution_param {
    num_output: 384
    pad: 1
    kernel_size: 3
    group: 2
    weight_filler {
      type: "gaussian"
      std: 0.01
    }
    bias_filler {
      type: "constant"
      value: 0.1
    }
  }
}
layer {
  name: "relu4"
  type: "ReLU"
  bottom: "conv4"
  top: "conv4"
}
layer {
  name: "conv5"
  type: "Convolution"
  bottom: "conv4"
  top: "conv5"
  param {
    lr_mult: 1
    decay_mult: 1
  }
  param {
    lr_mult: 2
    decay_mult: 0
  }
  convolution_param {
    num_output: 256
    pad: 1
    kernel_size: 3
    group: 2
    weight_filler {
      type: "gaussian"
      std: 0.01
    }
    bias_filler {
      type: "constant"
      value: 0.1
    }
  }
}
layer {
  name: "relu5"
  type: "ReLU"
  bottom: "conv5"
  top: "conv5"
}
layer {
  name: "pool5"
  type: "Pooling"
  bottom: "conv5"
  top: "pool5"
  pooling_param {
    pool: MAX
    kernel_size: 3
    stride: 2
  }
}
layer {
  name: "fc6"
  type: "InnerProduct"
  bottom: "pool5"
  top: "fc6"
  param {
    lr_mult: 1
    decay_mult: 1
  }
  param {
    lr_mult: 2
    decay_mult: 0
  }
  inner_product_param {
    num_output: 4096
    weight_filler {
      type: "gaussian"
      std: 0.005
    }
    bias_filler {
      type: "constant"
      value: 0.1
    }
  }
}
layer {
  name: "relu6"
  type: "ReLU"
  bottom: "fc6"
  top: "fc6"
}
layer {
  name: "drop6"
  type: "Dropout"
  bottom: "fc6"
  top: "fc6"
  dropout_param {
    dropout_ratio: 0.5
  }
}
layer {
  name: "fc7"
  type: "InnerProduct"
  bottom: "fc6"
  top: "fc7"
  param {
    lr_mult: 1
    decay_mult: 1
  }
  param {
    lr_mult: 2
    decay_mult: 0
  }
  inner_product_param {
    num_output: 4096
    weight_filler {
      type: "gaussian"
      std: 0.005
    }
    bias_filler {
      type: "constant"
      value: 0.1
    }
  }
}
layer {
  name: "relu7"
  type: "ReLU"
  bottom: "fc7"
  top: "fc7"
}
layer {
  name: "drop7"
  type: "Dropout"
  bottom: "fc7"
  top: "fc7"
  dropout_param {
    dropout_ratio: 0.5
  }
}
layer {
  name: "fc8"
  type: "InnerProduct"
  bottom: "fc7"
  top: "fc8"
  param {
    lr_mult: 1
    decay_mult: 1
  }
  param {
    lr_mult: 2
    decay_mult: 0
  }
  inner_product_param {
    num_output: 1000
    weight_filler {
      type: "gaussian"
      std: 0.01
    }
    bias_filler {
      type: "constant"
      value: 0
    }
  }
}
layer {
  name: "accuracy"
  type: "Accuracy"
  bottom: "fc8"
  bottom: "label"
  top: "accuracy"
  include {
    phase: TEST
  }
}
layer {
  name: "loss"
  type: "SoftmaxWithLoss"
  bottom: "fc8"
  bottom: "label"
  top: "loss"
}
I0829 14:58:20.486318  2346 layer_factory.hpp:77] Creating layer data
I0829 14:58:20.486708  2346 net.cpp:100] Creating Layer data
I0829 14:58:20.486812  2346 net.cpp:408] data -> data
I0829 14:58:20.486901  2346 net.cpp:408] data -> label
I0829 14:58:20.486987  2346 data_transformer.cpp:27] Loading mean file from: /home/ch/data/imagenet_mean.binaryproto
I0829 14:58:20.545023  2384 db_lmdb.cpp:35] Opened lmdb /home/ch/data/lmdb/val_lmdb
I0829 14:58:20.557137  2346 data_layer.cpp:41] output data size: 16,3,227,227
I0829 14:58:20.703919  2346 net.cpp:150] Setting up data
I0829 14:58:20.705539  2346 net.cpp:157] Top shape: 16 3 227 227 (2473392)
I0829 14:58:20.705900  2346 net.cpp:157] Top shape: 16 (16)
I0829 14:58:20.706156  2346 net.cpp:165] Memory required for data: 9893632
I0829 14:58:20.706413  2346 layer_factory.hpp:77] Creating layer label_data_1_split
I0829 14:58:20.706696  2346 net.cpp:100] Creating Layer label_data_1_split
I0829 14:58:20.706956  2346 net.cpp:434] label_data_1_split <- label
I0829 14:58:20.707245  2346 net.cpp:408] label_data_1_split -> label_data_1_split_0
I0829 14:58:20.707552  2346 net.cpp:408] label_data_1_split -> label_data_1_split_1
I0829 14:58:20.708186  2346 net.cpp:150] Setting up label_data_1_split
I0829 14:58:20.708474  2346 net.cpp:157] Top shape: 16 (16)
I0829 14:58:20.708734  2346 net.cpp:157] Top shape: 16 (16)
I0829 14:58:20.708976  2346 net.cpp:165] Memory required for data: 9893760
I0829 14:58:20.709228  2346 layer_factory.hpp:77] Creating layer conv1
I0829 14:58:20.709519  2346 net.cpp:100] Creating Layer conv1
I0829 14:58:20.709779  2346 net.cpp:434] conv1 <- data
I0829 14:58:20.710047  2346 net.cpp:408] conv1 -> conv1
I0829 14:58:20.745177  2346 net.cpp:150] Setting up conv1
I0829 14:58:20.745676  2346 net.cpp:157] Top shape: 16 96 55 55 (4646400)
I0829 14:58:20.745991  2346 net.cpp:165] Memory required for data: 28479360
I0829 14:58:20.746320  2346 layer_factory.hpp:77] Creating layer relu1
I0829 14:58:20.746615  2346 net.cpp:100] Creating Layer relu1
I0829 14:58:20.746892  2346 net.cpp:434] relu1 <- conv1
I0829 14:58:20.747172  2346 net.cpp:395] relu1 -> conv1 (in-place)
I0829 14:58:20.749985  2346 net.cpp:150] Setting up relu1
I0829 14:58:20.753221  2346 net.cpp:157] Top shape: 16 96 55 55 (4646400)
I0829 14:58:20.753638  2346 net.cpp:165] Memory required for data: 47064960
I0829 14:58:20.754416  2346 layer_factory.hpp:77] Creating layer norm1
I0829 14:58:20.756947  2346 net.cpp:100] Creating Layer norm1
I0829 14:58:20.757350  2346 net.cpp:434] norm1 <- conv1
I0829 14:58:20.757671  2346 net.cpp:408] norm1 -> norm1
I0829 14:58:20.760944  2346 net.cpp:150] Setting up norm1
I0829 14:58:20.764176  2346 net.cpp:157] Top shape: 16 96 55 55 (4646400)
I0829 14:58:20.775466  2346 net.cpp:165] Memory required for data: 65650560
I0829 14:58:20.775884  2346 layer_factory.hpp:77] Creating layer pool1
I0829 14:58:20.776230  2346 net.cpp:100] Creating Layer pool1
I0829 14:58:20.776535  2346 net.cpp:434] pool1 <- norm1
I0829 14:58:20.776837  2346 net.cpp:408] pool1 -> pool1
I0829 14:58:20.777523  2346 net.cpp:150] Setting up pool1
I0829 14:58:20.810665  2346 net.cpp:157] Top shape: 16 96 27 27 (1119744)
I0829 14:58:20.811200  2346 net.cpp:165] Memory required for data: 70129536
I0829 14:58:20.814646  2346 layer_factory.hpp:77] Creating layer conv2
I0829 14:58:20.815080  2346 net.cpp:100] Creating Layer conv2
I0829 14:58:20.815412  2346 net.cpp:434] conv2 <- pool1
I0829 14:58:20.815728  2346 net.cpp:408] conv2 -> conv2
I0829 14:58:20.901109  2346 net.cpp:150] Setting up conv2
I0829 14:58:20.919327  2346 net.cpp:157] Top shape: 16 256 27 27 (2985984)
I0829 14:58:20.919723  2346 net.cpp:165] Memory required for data: 82073472
I0829 14:58:20.920029  2346 layer_factory.hpp:77] Creating layer relu2
I0829 14:58:20.920305  2346 net.cpp:100] Creating Layer relu2
I0829 14:58:20.920564  2346 net.cpp:434] relu2 <- conv2
I0829 14:58:20.920835  2346 net.cpp:395] relu2 -> conv2 (in-place)
I0829 14:58:20.925884  2346 net.cpp:150] Setting up relu2
I0829 14:58:20.968295  2346 net.cpp:157] Top shape: 16 256 27 27 (2985984)
I0829 14:58:20.968749  2346 net.cpp:165] Memory required for data: 94017408
I0829 14:58:20.969012  2346 layer_factory.hpp:77] Creating layer norm2
I0829 14:58:20.969311  2346 net.cpp:100] Creating Layer norm2
I0829 14:58:20.969573  2346 net.cpp:434] norm2 <- conv2
I0829 14:58:20.969848  2346 net.cpp:408] norm2 -> norm2
I0829 14:58:20.973058  2346 net.cpp:150] Setting up norm2
I0829 14:58:20.976193  2346 net.cpp:157] Top shape: 16 256 27 27 (2985984)
I0829 14:58:20.976559  2346 net.cpp:165] Memory required for data: 105961344
I0829 14:58:20.976822  2346 layer_factory.hpp:77] Creating layer pool2
I0829 14:58:20.977102  2346 net.cpp:100] Creating Layer pool2
I0829 14:58:20.977355  2346 net.cpp:434] pool2 <- norm2
I0829 14:58:20.977623  2346 net.cpp:408] pool2 -> pool2
I0829 14:58:20.978200  2346 net.cpp:150] Setting up pool2
I0829 14:58:20.984297  2346 net.cpp:157] Top shape: 16 256 13 13 (692224)
I0829 14:58:20.984670  2346 net.cpp:165] Memory required for data: 108730240
I0829 14:58:20.987787  2346 layer_factory.hpp:77] Creating layer conv3
I0829 14:58:20.988139  2346 net.cpp:100] Creating Layer conv3
I0829 14:58:20.990010  2346 net.cpp:434] conv3 <- pool2
I0829 14:58:20.990372  2346 net.cpp:408] conv3 -> conv3
I0829 14:58:21.151260  2346 net.cpp:150] Setting up conv3
I0829 14:58:21.151358  2346 net.cpp:157] Top shape: 16 384 13 13 (1038336)
I0829 14:58:21.151381  2346 net.cpp:165] Memory required for data: 112883584
I0829 14:58:21.151448  2346 layer_factory.hpp:77] Creating layer relu3
I0829 14:58:21.151489  2346 net.cpp:100] Creating Layer relu3
I0829 14:58:21.151510  2346 net.cpp:434] relu3 <- conv3
I0829 14:58:21.151540  2346 net.cpp:395] relu3 -> conv3 (in-place)
I0829 14:58:21.154176  2346 net.cpp:150] Setting up relu3
I0829 14:58:21.154254  2346 net.cpp:157] Top shape: 16 384 13 13 (1038336)
I0829 14:58:21.154273  2346 net.cpp:165] Memory required for data: 117036928
I0829 14:58:21.154295  2346 layer_factory.hpp:77] Creating layer conv4
I0829 14:58:21.154353  2346 net.cpp:100] Creating Layer conv4
I0829 14:58:21.154376  2346 net.cpp:434] conv4 <- conv3
I0829 14:58:21.154418  2346 net.cpp:408] conv4 -> conv4
I0829 14:58:21.227769  2346 net.cpp:150] Setting up conv4
I0829 14:58:21.228212  2346 net.cpp:157] Top shape: 16 384 13 13 (1038336)
I0829 14:58:21.228487  2346 net.cpp:165] Memory required for data: 121190272
I0829 14:58:21.228761  2346 layer_factory.hpp:77] Creating layer relu4
I0829 14:58:21.229023  2346 net.cpp:100] Creating Layer relu4
I0829 14:58:21.229269  2346 net.cpp:434] relu4 <- conv4
I0829 14:58:21.229530  2346 net.cpp:395] relu4 -> conv4 (in-place)
I0829 14:58:21.234462  2346 net.cpp:150] Setting up relu4
I0829 14:58:21.234902  2346 net.cpp:157] Top shape: 16 384 13 13 (1038336)
I0829 14:58:21.235172  2346 net.cpp:165] Memory required for data: 125343616
I0829 14:58:21.235460  2346 layer_factory.hpp:77] Creating layer conv5
I0829 14:58:21.235759  2346 net.cpp:100] Creating Layer conv5
I0829 14:58:21.236012  2346 net.cpp:434] conv5 <- conv4
I0829 14:58:21.236286  2346 net.cpp:408] conv5 -> conv5
I0829 14:58:21.330075  2346 net.cpp:150] Setting up conv5
I0829 14:58:21.330329  2346 net.cpp:157] Top shape: 16 256 13 13 (692224)
I0829 14:58:21.330623  2346 net.cpp:165] Memory required for data: 128112512
I0829 14:58:21.330925  2346 layer_factory.hpp:77] Creating layer relu5
I0829 14:58:21.331234  2346 net.cpp:100] Creating Layer relu5
I0829 14:58:21.331507  2346 net.cpp:434] relu5 <- conv5
I0829 14:58:21.331794  2346 net.cpp:395] relu5 -> conv5 (in-place)
I0829 14:58:21.334673  2346 net.cpp:150] Setting up relu5
I0829 14:58:21.335099  2346 net.cpp:157] Top shape: 16 256 13 13 (692224)
I0829 14:58:21.335449  2346 net.cpp:165] Memory required for data: 130881408
I0829 14:58:21.335706  2346 layer_factory.hpp:77] Creating layer pool5
I0829 14:58:21.335989  2346 net.cpp:100] Creating Layer pool5
I0829 14:58:21.336248  2346 net.cpp:434] pool5 <- conv5
I0829 14:58:21.336514  2346 net.cpp:408] pool5 -> pool5
I0829 14:58:21.337116  2346 net.cpp:150] Setting up pool5
I0829 14:58:21.337433  2346 net.cpp:157] Top shape: 16 256 6 6 (147456)
I0829 14:58:21.337728  2346 net.cpp:165] Memory required for data: 131471232
I0829 14:58:21.337975  2346 layer_factory.hpp:77] Creating layer fc6
I0829 14:58:21.338250  2346 net.cpp:100] Creating Layer fc6
I0829 14:58:21.338506  2346 net.cpp:434] fc6 <- pool5
I0829 14:58:21.338779  2346 net.cpp:408] fc6 -> fc6
I0829 14:58:23.928683  2346 net.cpp:150] Setting up fc6
I0829 14:58:23.928795  2346 net.cpp:157] Top shape: 16 4096 (65536)
I0829 14:58:23.928822  2346 net.cpp:165] Memory required for data: 131733376
I0829 14:58:23.928871  2346 layer_factory.hpp:77] Creating layer relu6
I0829 14:58:23.928915  2346 net.cpp:100] Creating Layer relu6
I0829 14:58:23.929038  2346 net.cpp:434] relu6 <- fc6
I0829 14:58:23.929086  2346 net.cpp:395] relu6 -> fc6 (in-place)
I0829 14:58:23.932147  2346 net.cpp:150] Setting up relu6
I0829 14:58:23.932241  2346 net.cpp:157] Top shape: 16 4096 (65536)
I0829 14:58:23.932265  2346 net.cpp:165] Memory required for data: 131995520
I0829 14:58:23.932291  2346 layer_factory.hpp:77] Creating layer drop6
I0829 14:58:23.932332  2346 net.cpp:100] Creating Layer drop6
I0829 14:58:23.932437  2346 net.cpp:434] drop6 <- fc6
I0829 14:58:23.932531  2346 net.cpp:395] drop6 -> fc6 (in-place)
I0829 14:58:23.932821  2346 net.cpp:150] Setting up drop6
I0829 14:58:23.932868  2346 net.cpp:157] Top shape: 16 4096 (65536)
I0829 14:58:23.932885  2346 net.cpp:165] Memory required for data: 132257664
I0829 14:58:23.932905  2346 layer_factory.hpp:77] Creating layer fc7
I0829 14:58:23.932955  2346 net.cpp:100] Creating Layer fc7
I0829 14:58:23.933035  2346 net.cpp:434] fc7 <- fc6
I0829 14:58:23.933121  2346 net.cpp:408] fc7 -> fc7
I0829 14:58:25.173148  2346 net.cpp:150] Setting up fc7
I0829 14:58:25.173249  2346 net.cpp:157] Top shape: 16 4096 (65536)
I0829 14:58:25.173270  2346 net.cpp:165] Memory required for data: 132519808
I0829 14:58:25.173316  2346 layer_factory.hpp:77] Creating layer relu7
I0829 14:58:25.173360  2346 net.cpp:100] Creating Layer relu7
I0829 14:58:25.173470  2346 net.cpp:434] relu7 <- fc7
I0829 14:58:25.173552  2346 net.cpp:395] relu7 -> fc7 (in-place)
I0829 14:58:25.176234  2346 net.cpp:150] Setting up relu7
I0829 14:58:25.176321  2346 net.cpp:157] Top shape: 16 4096 (65536)
I0829 14:58:25.176342  2346 net.cpp:165] Memory required for data: 132781952
I0829 14:58:25.176367  2346 layer_factory.hpp:77] Creating layer drop7
I0829 14:58:25.176411  2346 net.cpp:100] Creating Layer drop7
I0829 14:58:25.176513  2346 net.cpp:434] drop7 <- fc7
I0829 14:58:25.176594  2346 net.cpp:395] drop7 -> fc7 (in-place)
I0829 14:58:25.176873  2346 net.cpp:150] Setting up drop7
I0829 14:58:25.176916  2346 net.cpp:157] Top shape: 16 4096 (65536)
I0829 14:58:25.176934  2346 net.cpp:165] Memory required for data: 133044096
I0829 14:58:25.176955  2346 layer_factory.hpp:77] Creating layer fc8
I0829 14:58:25.176998  2346 net.cpp:100] Creating Layer fc8
I0829 14:58:25.177076  2346 net.cpp:434] fc8 <- fc7
I0829 14:58:25.177161  2346 net.cpp:408] fc8 -> fc8
I0829 14:58:25.480728  2346 net.cpp:150] Setting up fc8
I0829 14:58:25.480832  2346 net.cpp:157] Top shape: 16 1000 (16000)
I0829 14:58:25.480852  2346 net.cpp:165] Memory required for data: 133108096
I0829 14:58:25.480897  2346 layer_factory.hpp:77] Creating layer fc8_fc8_0_split
I0829 14:58:25.480947  2346 net.cpp:100] Creating Layer fc8_fc8_0_split
I0829 14:58:25.481058  2346 net.cpp:434] fc8_fc8_0_split <- fc8
I0829 14:58:25.481143  2346 net.cpp:408] fc8_fc8_0_split -> fc8_fc8_0_split_0
I0829 14:58:25.481231  2346 net.cpp:408] fc8_fc8_0_split -> fc8_fc8_0_split_1
I0829 14:58:25.481541  2346 net.cpp:150] Setting up fc8_fc8_0_split
I0829 14:58:25.481590  2346 net.cpp:157] Top shape: 16 1000 (16000)
I0829 14:58:25.481611  2346 net.cpp:157] Top shape: 16 1000 (16000)
I0829 14:58:25.481628  2346 net.cpp:165] Memory required for data: 133236096
I0829 14:58:25.481647  2346 layer_factory.hpp:77] Creating layer accuracy
I0829 14:58:25.481678  2346 net.cpp:100] Creating Layer accuracy
I0829 14:58:25.481788  2346 net.cpp:434] accuracy <- fc8_fc8_0_split_0
I0829 14:58:25.481866  2346 net.cpp:434] accuracy <- label_data_1_split_0
I0829 14:58:25.481900  2346 net.cpp:408] accuracy -> accuracy
…
