…
I0829 11:12:43.445588 17087 net.cpp:322] The NetState phase (0) differed from the phase (1) specified by a rule in layer accuracy
I0829 11:12:43.446017 17087 net.cpp:58] Initializing net from parameters: 
name: "AlexNet"
state {
  phase: TRAIN
  level: 0
  stage: ""
}
layer {
  name: "data"
  type: "Data"
  top: "data"
  top: "label"
  include {
    phase: TRAIN
  }
  transform_param {
    mirror: true
    crop_size: 227
    mean_file: "/home/ch/data/imagenet_mean.binaryproto"
  }
  data_param {
    source: "/home/ch/data/lmdb/train_lmdb"
    batch_size: 64
    backend: LMDB
  }
}
layer {
  name: "conv1"
  type: "Convolution"
  bottom: "data"
  top: "conv1"
  param {
    lr_mult: 1
    decay_mult: 1
  }
  param {
    lr_mult: 2
    decay_mult: 0
  }
  convolution_param {
    num_output: 96
    kernel_size: 11
    stride: 4
    weight_filler {
      type: "gaussian"
      std: 0.01
    }
    bias_filler {
      type: "constant"
      value: 0
    }
  }
}
layer {
  name: "conv1/bn"
  type: "BatchNorm"
  bottom: "conv1"
  top: "conv1"
}
layer {
  name: "conv1/scale"
  type: "Scale"
  bottom: "conv1"
  top: "conv1"
  param {
    lr_mult: 0.1
    decay_mult: 0
  }
  param {
    lr_mult: 0.2
    decay_mult: 0
  }
  scale_param {
    filler {
      value: 1
    }
    bias_term: true
    bias_filler {
      value: 0
    }
  }
}
layer {
  name: "relu1"
  type: "ReLU"
  bottom: "conv1"
  top: "conv1"
}
layer {
  name: "pool1"
  type: "Pooling"
  bottom: "conv1"
  top: "pool1"
  pooling_param {
    pool: MAX
    kernel_size: 3
    stride: 2
  }
}
layer {
  name: "conv2/dw"
  type: "Convolution"
  bottom: "pool1"
  top: "conv2/dw"
  param {
    lr_mult: 1
    decay_mult: 1
  }
  param {
    lr_mult: 2
    decay_mult: 0
  }
  convolution_param {
    num_output: 96
    pad: 1
    kernel_size: 5
    group: 96
    weight_filler {
      type: "gaussian"
      std: 0.01
    }
    bias_filler {
      type: "constant"
      value: 0.1
    }
  }
}
layer {
  name: "conv2/dw/bn"
  type: "BatchNorm"
  bottom: "conv2/dw"
  top: "conv2/dw"
}
layer {
  name: "conv2/dw/scale"
  type: "Scale"
  bottom: "conv2/dw"
  top: "conv2/dw"
  param {
    lr_mult: 0.1
    decay_mult: 0
  }
  param {
    lr_mult: 0.2
    decay_mult: 0
  }
  scale_param {
    filler {
      value: 1
    }
    bias_term: true
    bias_filler {
      value: 0
    }
  }
}
layer {
  name: "conv2/dw/relu"
  type: "ReLU"
  bottom: "conv2/dw"
  top: "conv2/dw"
}
layer {
  name: "conv2"
  type: "Convolution"
  bottom: "conv2/dw"
  top: "conv2"
  param {
    lr_mult: 1
    decay_mult: 1
  }
  convolution_param {
    num_output: 128
    bias_term: false
    kernel_size: 1
    weight_filler {
      type: "gaussian"
      std: 0.01
    }
    bias_filler {
      type: "constant"
      value: 0.1
    }
  }
}
layer {
  name: "conv2/bn"
  type: "BatchNorm"
  bottom: "conv2"
  top: "conv2"
}
layer {
  name: "conv2/scale"
  type: "Scale"
  bottom: "conv2"
  top: "conv2"
  param {
    lr_mult: 0.1
    decay_mult: 0
  }
  param {
    lr_mult: 0.2
    decay_mult: 0
  }
  scale_param {
    filler {
      value: 1
    }
    bias_term: true
    bias_filler {
      value: 0
    }
  }
}
layer {
  name: "conv2/relu"
  type: "ReLU"
  bottom: "conv2"
  top: "conv2"
}
layer {
  name: "pool2"
  type: "Pooling"
  bottom: "conv2"
  top: "pool2"
  pooling_param {
    pool: MAX
    kernel_size: 3
    stride: 2
  }
}
layer {
  name: "conv3/dw"
  type: "Convolution"
  bottom: "pool2"
  top: "conv3/dw"
  param {
    lr_mult: 1
    decay_mult: 1
  }
  param {
    lr_mult: 2
    decay_mult: 0
  }
  convolution_param {
    num_output: 128
    pad: 1
    kernel_size: 3
    group: 128
    weight_filler {
      type: "gaussian"
      std: 0.01
    }
    bias_filler {
      type: "constant"
      value: 0.1
    }
  }
}
layer {
  name: "conv3/dw/bn"
  type: "BatchNorm"
  bottom: "conv3/dw"
  top: "conv3/dw"
}
layer {
  name: "conv3/dw/scale"
  type: "Scale"
  bottom: "conv3/dw"
  top: "conv3/dw"
  param {
    lr_mult: 0.1
    decay_mult: 0
  }
  param {
    lr_mult: 0.2
    decay_mult: 0
  }
  scale_param {
    filler {
      value: 1
    }
    bias_term: true
    bias_filler {
      value: 0
    }
  }
}
layer {
  name: "conv3/dw/relu"
  type: "ReLU"
  bottom: "conv3/dw"
  top: "conv3/dw"
}
layer {
  name: "conv3"
  type: "Convolution"
  bottom: "conv3/dw"
  top: "conv3"
  param {
    lr_mult: 1
    decay_mult: 1
  }
  convolution_param {
    num_output: 128
    bias_term: false
    kernel_size: 1
    weight_filler {
      type: "gaussian"
      std: 0.01
    }
    bias_filler {
      type: "constant"
      value: 0.1
    }
  }
}
layer {
  name: "conv3/bn"
  type: "BatchNorm"
  bottom: "conv3"
  top: "conv3"
}
layer {
  name: "conv3/scale"
  type: "Scale"
  bottom: "conv3"
  top: "conv3"
  param {
    lr_mult: 0.1
    decay_mult: 0
  }
  param {
    lr_mult: 0.2
    decay_mult: 0
  }
  scale_param {
    filler {
      value: 1
    }
    bias_term: true
    bias_filler {
      value: 0
    }
  }
}
layer {
  name: "conv3/relu"
  type: "ReLU"
  bottom: "conv3"
  top: "conv3"
}
layer {
  name: "conv4/dw"
  type: "Convolution"
  bottom: "conv3"
  top: "conv4/dw"
  param {
    lr_mult: 1
    decay_mult: 1
  }
  param {
    lr_mult: 2
    decay_mult: 0
  }
  convolution_param {
    num_output: 128
    pad: 1
    kernel_size: 3
    group: 128
    weight_filler {
      type: "gaussian"
      std: 0.01
    }
    bias_filler {
      type: "constant"
      value: 0.1
    }
  }
}
layer {
  name: "conv4/dw/bn"
  type: "BatchNorm"
  bottom: "conv4/dw"
  top: "conv4/dw"
}
layer {
  name: "conv4/dw/scale"
  type: "Scale"
  bottom: "conv4/dw"
  top: "conv4/dw"
  param {
    lr_mult: 0.1
    decay_mult: 0
  }
  param {
    lr_mult: 0.2
    decay_mult: 0
  }
  scale_param {
    filler {
      value: 1
    }
    bias_term: true
    bias_filler {
      value: 0
    }
  }
}
layer {
  name: "conv4/dw/relu"
  type: "ReLU"
  bottom: "conv4/dw"
  top: "conv4/dw"
}
layer {
  name: "conv4"
  type: "Convolution"
  bottom: "conv4/dw"
  top: "conv4"
  param {
    lr_mult: 1
    decay_mult: 1
  }
  convolution_param {
    num_output: 128
    bias_term: false
    kernel_size: 1
    weight_filler {
      type: "gaussian"
      std: 0.01
    }
    bias_filler {
      type: "constant"
      value: 0.1
    }
  }
}
layer {
  name: "conv4/bn"
  type: "BatchNorm"
  bottom: "conv4"
  top: "conv4"
}
layer {
  name: "conv4/scale"
  type: "Scale"
  bottom: "conv4"
  top: "conv4"
  param {
    lr_mult: 0.1
    decay_mult: 0
  }
  param {
    lr_mult: 0.2
    decay_mult: 0
  }
  scale_param {
    filler {
      value: 1
    }
    bias_term: true
    bias_filler {
      value: 0
    }
  }
}
layer {
  name: "conv4/relu"
  type: "ReLU"
  bottom: "conv4"
  top: "conv4"
}
layer {
  name: "conv5/dw"
  type: "Convolution"
  bottom: "conv4"
  top: "conv5/dw"
  param {
    lr_mult: 1
    decay_mult: 1
  }
  param {
    lr_mult: 2
    decay_mult: 0
  }
  convolution_param {
    num_output: 128
    pad: 1
    kernel_size: 3
    group: 128
    weight_filler {
      type: "gaussian"
      std: 0.01
    }
    bias_filler {
      type: "constant"
      value: 0.1
    }
  }
}
layer {
  name: "conv5/dw/bn"
  type: "BatchNorm"
  bottom: "conv5/dw"
  top: "conv5/dw"
}
layer {
  name: "conv5/dw/scale"
  type: "Scale"
  bottom: "conv5/dw"
  top: "conv5/dw"
  param {
    lr_mult: 0.1
    decay_mult: 0
  }
  param {
    lr_mult: 0.2
    decay_mult: 0
  }
  scale_param {
    filler {
      value: 1
    }
    bias_term: true
    bias_filler {
      value: 0
    }
  }
}
layer {
  name: "conv5/dw/relu"
  type: "ReLU"
  bottom: "conv5/dw"
  top: "conv5/dw"
}
layer {
  name: "conv5"
  type: "Convolution"
  bottom: "conv5/dw"
  top: "conv5"
  param {
    lr_mult: 1
    decay_mult: 1
  }
  convolution_param {
    num_output: 256
    bias_term: false
    kernel_size: 1
    weight_filler {
      type: "gaussian"
      std: 0.01
    }
    bias_filler {
      type: "constant"
      value: 0.1
    }
  }
}
layer {
  name: "conv5/bn"
  type: "BatchNorm"
  bottom: "conv5"
  top: "conv5"
}
layer {
  name: "conv5/scale"
  type: "Scale"
  bottom: "conv5"
  top: "conv5"
  param {
    lr_mult: 0.1
    decay_mult: 0
  }
  param {
    lr_mult: 0.2
    decay_mult: 0
  }
  scale_param {
    filler {
      value: 1
    }
    bias_term: true
    bias_filler {
      value: 0
    }
  }
}
layer {
  name: "conv5/relu"
  type: "ReLU"
  bottom: "conv5"
  top: "conv5"
}
layer {
  name: "pool5"
  type: "Pooling"
  bottom: "conv5"
  top: "pool5"
  pooling_param {
    pool: MAX
    kernel_size: 3
    stride: 2
  }
}
layer {
  name: "fc6"
  type: "InnerProduct"
  bottom: "pool5"
  top: "fc6"
  param {
    lr_mult: 1
    decay_mult: 1
  }
  param {
    lr_mult: 2
    decay_mult: 0
  }
  inner_product_param {
    num_output: 2048
    weight_filler {
      type: "gaussian"
      std: 0.005
    }
    bias_filler {
      type: "constant"
      value: 0.1
    }
  }
}
layer {
  name: "relu6"
  type: "ReLU"
  bottom: "fc6"
  top: "fc6"
}
layer {
  name: "drop6"
  type: "Dropout"
  bottom: "fc6"
  top: "fc6"
  dropout_param {
    dropout_ratio: 0.5
  }
}
layer {
  name: "fc7"
  type: "InnerProduct"
  bottom: "fc6"
  top: "fc7"
  param {
    lr_mult: 1
    decay_mult: 1
  }
  param {
    lr_mult: 2
    decay_mult: 0
  }
  inner_product_param {
    num_output: 4096
    weight_filler {
      type: "gaussian"
      std: 0.005
    }
    bias_filler {
      type: "constant"
      value: 0.1
    }
  }
}
layer {
  name: "relu7"
  type: "ReLU"
  bottom: "fc7"
  top: "fc7"
}
layer {
  name: "drop7"
  type: "Dropout"
  bottom: "fc7"
  top: "fc7"
  dropout_param {
    dropout_ratio: 0.5
  }
}
layer {
  name: "fc8"
  type: "InnerProduct"
  bottom: "fc7"
  top: "fc8"
  param {
    lr_mult: 1
    decay_mult: 1
  }
  param {
    lr_mult: 2
    decay_mult: 0
  }
  inner_product_param {
    num_output: 1000
    weight_filler {
      type: "gaussian"
      std: 0.01
    }
    bias_filler {
      type: "constant"
      value: 0
    }
  }
}
layer {
  name: "loss"
  type: "SoftmaxWithLoss"
  bottom: "fc8"
  bottom: "label"
  top: "loss"
}
I0829 11:12:43.446302 17087 layer_factory.hpp:77] Creating layer data
I0829 11:12:43.446640 17087 net.cpp:100] Creating Layer data
I0829 11:12:43.446714 17087 net.cpp:408] data -> data
I0829 11:12:43.446760 17087 net.cpp:408] data -> label
I0829 11:12:43.446799 17087 data_transformer.cpp:27] Loading mean file from: /home/ch/data/imagenet_mean.binaryproto
I0829 11:12:43.524293 17095 db_lmdb.cpp:35] Opened lmdb /home/ch/data/lmdb/train_lmdb
I0829 11:12:43.532835 17087 data_layer.cpp:41] output data size: 64,3,227,227
I0829 11:12:43.615640 17087 net.cpp:150] Setting up data
I0829 11:12:43.615701 17087 net.cpp:157] Top shape: 64 3 227 227 (9893568)
I0829 11:12:43.615717 17087 net.cpp:157] Top shape: 64 (64)
I0829 11:12:43.615726 17087 net.cpp:165] Memory required for data: 39574528
I0829 11:12:43.615744 17087 layer_factory.hpp:77] Creating layer conv1
I0829 11:12:43.615787 17087 net.cpp:100] Creating Layer conv1
I0829 11:12:43.615800 17087 net.cpp:434] conv1 <- data
I0829 11:12:43.615828 17087 net.cpp:408] conv1 -> conv1
I0829 11:12:43.714010 17096 blocking_queue.cpp:50] Waiting for data
I0829 11:12:44.627406 17087 net.cpp:150] Setting up conv1
I0829 11:12:44.627442 17087 net.cpp:157] Top shape: 64 96 55 55 (18585600)
I0829 11:12:44.627477 17087 net.cpp:165] Memory required for data: 113916928
I0829 11:12:44.627516 17087 layer_factory.hpp:77] Creating layer conv1/bn
I0829 11:12:44.627547 17087 net.cpp:100] Creating Layer conv1/bn
I0829 11:12:44.627559 17087 net.cpp:434] conv1/bn <- conv1
I0829 11:12:44.627578 17087 net.cpp:395] conv1/bn -> conv1 (in-place)
I0829 11:12:44.627934 17087 net.cpp:150] Setting up conv1/bn
I0829 11:12:44.627948 17087 net.cpp:157] Top shape: 64 96 55 55 (18585600)
I0829 11:12:44.627951 17087 net.cpp:165] Memory required for data: 188259328
I0829 11:12:44.627969 17087 layer_factory.hpp:77] Creating layer conv1/scale
I0829 11:12:44.627980 17087 net.cpp:100] Creating Layer conv1/scale
I0829 11:12:44.627985 17087 net.cpp:434] conv1/scale <- conv1
I0829 11:12:44.627995 17087 net.cpp:395] conv1/scale -> conv1 (in-place)
I0829 11:12:44.628065 17087 layer_factory.hpp:77] Creating layer conv1/scale
I0829 11:12:44.628293 17087 net.cpp:150] Setting up conv1/scale
I0829 11:12:44.628309 17087 net.cpp:157] Top shape: 64 96 55 55 (18585600)
I0829 11:12:44.628314 17087 net.cpp:165] Memory required for data: 262601728
I0829 11:12:44.628322 17087 layer_factory.hpp:77] Creating layer relu1
I0829 11:12:44.628338 17087 net.cpp:100] Creating Layer relu1
I0829 11:12:44.628350 17087 net.cpp:434] relu1 <- conv1
I0829 11:12:44.628361 17087 net.cpp:395] relu1 -> conv1 (in-place)
I0829 11:12:44.629109 17087 net.cpp:150] Setting up relu1
I0829 11:12:44.629129 17087 net.cpp:157] Top shape: 64 96 55 55 (18585600)
I0829 11:12:44.629139 17087 net.cpp:165] Memory required for data: 336944128
I0829 11:12:44.629148 17087 layer_factory.hpp:77] Creating layer pool1
I0829 11:12:44.629163 17087 net.cpp:100] Creating Layer pool1
I0829 11:12:44.629174 17087 net.cpp:434] pool1 <- conv1
I0829 11:12:44.629190 17087 net.cpp:408] pool1 -> pool1
I0829 11:12:44.629287 17087 net.cpp:150] Setting up pool1
I0829 11:12:44.629304 17087 net.cpp:157] Top shape: 64 96 27 27 (4478976)
I0829 11:12:44.629313 17087 net.cpp:165] Memory required for data: 354860032
I0829 11:12:44.629321 17087 layer_factory.hpp:77] Creating layer conv2/dw
I0829 11:12:44.629344 17087 net.cpp:100] Creating Layer conv2/dw
I0829 11:12:44.629356 17087 net.cpp:434] conv2/dw <- pool1
I0829 11:12:44.629369 17087 net.cpp:408] conv2/dw -> conv2/dw
I0829 11:12:44.914623 17087 net.cpp:150] Setting up conv2/dw
I0829 11:12:44.914672 17087 net.cpp:157] Top shape: 64 96 25 25 (3840000)
I0829 11:12:44.914681 17087 net.cpp:165] Memory required for data: 370220032
I0829 11:12:44.914714 17087 layer_factory.hpp:77] Creating layer conv2/dw/bn
I0829 11:12:44.914732 17087 net.cpp:100] Creating Layer conv2/dw/bn
I0829 11:12:44.914742 17087 net.cpp:434] conv2/dw/bn <- conv2/dw
I0829 11:12:44.914758 17087 net.cpp:395] conv2/dw/bn -> conv2/dw (in-place)
I0829 11:12:44.915412 17087 net.cpp:150] Setting up conv2/dw/bn
I0829 11:12:44.915438 17087 net.cpp:157] Top shape: 64 96 25 25 (3840000)
I0829 11:12:44.915446 17087 net.cpp:165] Memory required for data: 385580032
I0829 11:12:44.915465 17087 layer_factory.hpp:77] Creating layer conv2/dw/scale
I0829 11:12:44.915491 17087 net.cpp:100] Creating Layer conv2/dw/scale
I0829 11:12:44.915500 17087 net.cpp:434] conv2/dw/scale <- conv2/dw
I0829 11:12:44.915514 17087 net.cpp:395] conv2/dw/scale -> conv2/dw (in-place)
I0829 11:12:44.915629 17087 layer_factory.hpp:77] Creating layer conv2/dw/scale
I0829 11:12:44.915974 17087 net.cpp:150] Setting up conv2/dw/scale
I0829 11:12:44.915998 17087 net.cpp:157] Top shape: 64 96 25 25 (3840000)
I0829 11:12:44.916005 17087 net.cpp:165] Memory required for data: 400940032
I0829 11:12:44.916020 17087 layer_factory.hpp:77] Creating layer conv2/dw/relu
I0829 11:12:44.916041 17087 net.cpp:100] Creating Layer conv2/dw/relu
I0829 11:12:44.916050 17087 net.cpp:434] conv2/dw/relu <- conv2/dw
I0829 11:12:44.916061 17087 net.cpp:395] conv2/dw/relu -> conv2/dw (in-place)
I0829 11:12:44.917035 17087 net.cpp:150] Setting up conv2/dw/relu
I0829 11:12:44.917057 17087 net.cpp:157] Top shape: 64 96 25 25 (3840000)
I0829 11:12:44.917088 17087 net.cpp:165] Memory required for data: 416300032
I0829 11:12:44.917098 17087 layer_factory.hpp:77] Creating layer conv2
I0829 11:12:44.917120 17087 net.cpp:100] Creating Layer conv2
I0829 11:12:44.917132 17087 net.cpp:434] conv2 <- conv2/dw
I0829 11:12:44.917150 17087 net.cpp:408] conv2 -> conv2
I0829 11:12:44.922797 17087 net.cpp:150] Setting up conv2
I0829 11:12:44.922838 17087 net.cpp:157] Top shape: 64 128 25 25 (5120000)
I0829 11:12:44.922847 17087 net.cpp:165] Memory required for data: 436780032
I0829 11:12:44.922864 17087 layer_factory.hpp:77] Creating layer conv2/bn
I0829 11:12:44.922885 17087 net.cpp:100] Creating Layer conv2/bn
I0829 11:12:44.922897 17087 net.cpp:434] conv2/bn <- conv2
I0829 11:12:44.922915 17087 net.cpp:395] conv2/bn -> conv2 (in-place)
I0829 11:12:44.923337 17087 net.cpp:150] Setting up conv2/bn
I0829 11:12:44.923357 17087 net.cpp:157] Top shape: 64 128 25 25 (5120000)
I0829 11:12:44.923364 17087 net.cpp:165] Memory required for data: 457260032
I0829 11:12:44.923396 17087 layer_factory.hpp:77] Creating layer conv2/scale
I0829 11:12:44.923414 17087 net.cpp:100] Creating Layer conv2/scale
I0829 11:12:44.923425 17087 net.cpp:434] conv2/scale <- conv2
I0829 11:12:44.923439 17087 net.cpp:395] conv2/scale -> conv2 (in-place)
I0829 11:12:44.923538 17087 layer_factory.hpp:77] Creating layer conv2/scale
I0829 11:12:44.923764 17087 net.cpp:150] Setting up conv2/scale
I0829 11:12:44.923784 17087 net.cpp:157] Top shape: 64 128 25 25 (5120000)
I0829 11:12:44.923794 17087 net.cpp:165] Memory required for data: 477740032
I0829 11:12:44.923810 17087 layer_factory.hpp:77] Creating layer conv2/relu
I0829 11:12:44.923825 17087 net.cpp:100] Creating Layer conv2/relu
I0829 11:12:44.923835 17087 net.cpp:434] conv2/relu <- conv2
I0829 11:12:44.923846 17087 net.cpp:395] conv2/relu -> conv2 (in-place)
I0829 11:12:44.925235 17087 net.cpp:150] Setting up conv2/relu
I0829 11:12:44.925261 17087 net.cpp:157] Top shape: 64 128 25 25 (5120000)
I0829 11:12:44.925271 17087 net.cpp:165] Memory required for data: 498220032
I0829 11:12:44.925281 17087 layer_factory.hpp:77] Creating layer pool2
I0829 11:12:44.925295 17087 net.cpp:100] Creating Layer pool2
I0829 11:12:44.925307 17087 net.cpp:434] pool2 <- conv2
I0829 11:12:44.925325 17087 net.cpp:408] pool2 -> pool2
I0829 11:12:44.925424 17087 net.cpp:150] Setting up pool2
I0829 11:12:44.925443 17087 net.cpp:157] Top shape: 64 128 12 12 (1179648)
I0829 11:12:44.925454 17087 net.cpp:165] Memory required for data: 502938624
I0829 11:12:44.925462 17087 layer_factory.hpp:77] Creating layer conv3/dw
I0829 11:12:44.925485 17087 net.cpp:100] Creating Layer conv3/dw
I0829 11:12:44.925494 17087 net.cpp:434] conv3/dw <- pool2
I0829 11:12:44.925509 17087 net.cpp:408] conv3/dw -> conv3/dw
I0829 11:12:45.334766 17087 net.cpp:150] Setting up conv3/dw
I0829 11:12:45.334807 17087 net.cpp:157] Top shape: 64 128 12 12 (1179648)
I0829 11:12:45.334817 17087 net.cpp:165] Memory required for data: 507657216
I0829 11:12:45.334838 17087 layer_factory.hpp:77] Creating layer conv3/dw/bn
I0829 11:12:45.334864 17087 net.cpp:100] Creating Layer conv3/dw/bn
I0829 11:12:45.334879 17087 net.cpp:434] conv3/dw/bn <- conv3/dw
I0829 11:12:45.334897 17087 net.cpp:395] conv3/dw/bn -> conv3/dw (in-place)
I0829 11:12:45.335470 17087 net.cpp:150] Setting up conv3/dw/bn
I0829 11:12:45.335491 17087 net.cpp:157] Top shape: 64 128 12 12 (1179648)
I0829 11:12:45.335500 17087 net.cpp:165] Memory required for data: 512375808
I0829 11:12:45.335520 17087 layer_factory.hpp:77] Creating layer conv3/dw/scale
I0829 11:12:45.335541 17087 net.cpp:100] Creating Layer conv3/dw/scale
I0829 11:12:45.335552 17087 net.cpp:434] conv3/dw/scale <- conv3/dw
I0829 11:12:45.335567 17087 net.cpp:395] conv3/dw/scale -> conv3/dw (in-place)
I0829 11:12:45.335726 17087 layer_factory.hpp:77] Creating layer conv3/dw/scale
I0829 11:12:45.336031 17087 net.cpp:150] Setting up conv3/dw/scale
I0829 11:12:45.336048 17087 net.cpp:157] Top shape: 64 128 12 12 (1179648)
I0829 11:12:45.336056 17087 net.cpp:165] Memory required for data: 517094400
I0829 11:12:45.336096 17087 layer_factory.hpp:77] Creating layer conv3/dw/relu
I0829 11:12:45.336118 17087 net.cpp:100] Creating Layer conv3/dw/relu
I0829 11:12:45.336129 17087 net.cpp:434] conv3/dw/relu <- conv3/dw
I0829 11:12:45.336141 17087 net.cpp:395] conv3/dw/relu -> conv3/dw (in-place)
I0829 11:12:45.336984 17087 net.cpp:150] Setting up conv3/dw/relu
I0829 11:12:45.337008 17087 net.cpp:157] Top shape: 64 128 12 12 (1179648)
I0829 11:12:45.337018 17087 net.cpp:165] Memory required for data: 521812992
I0829 11:12:45.337026 17087 layer_factory.hpp:77] Creating layer conv3
I0829 11:12:45.337050 17087 net.cpp:100] Creating Layer conv3
I0829 11:12:45.337061 17087 net.cpp:434] conv3 <- conv3/dw
I0829 11:12:45.337076 17087 net.cpp:408] conv3 -> conv3
I0829 11:12:45.342187 17087 net.cpp:150] Setting up conv3
I0829 11:12:45.342229 17087 net.cpp:157] Top shape: 64 128 12 12 (1179648)
I0829 11:12:45.342238 17087 net.cpp:165] Memory required for data: 526531584
I0829 11:12:45.342255 17087 layer_factory.hpp:77] Creating layer conv3/bn
I0829 11:12:45.342276 17087 net.cpp:100] Creating Layer conv3/bn
I0829 11:12:45.342286 17087 net.cpp:434] conv3/bn <- conv3
I0829 11:12:45.342308 17087 net.cpp:395] conv3/bn -> conv3 (in-place)
I0829 11:12:45.343108 17087 net.cpp:150] Setting up conv3/bn
I0829 11:12:45.343130 17087 net.cpp:157] Top shape: 64 128 12 12 (1179648)
I0829 11:12:45.343139 17087 net.cpp:165] Memory required for data: 531250176
I0829 11:12:45.343158 17087 layer_factory.hpp:77] Creating layer conv3/scale
I0829 11:12:45.343180 17087 net.cpp:100] Creating Layer conv3/scale
I0829 11:12:45.343194 17087 net.cpp:434] conv3/scale <- conv3
I0829 11:12:45.343205 17087 net.cpp:395] conv3/scale -> conv3 (in-place)
I0829 11:12:45.343371 17087 layer_factory.hpp:77] Creating layer conv3/scale
I0829 11:12:45.343788 17087 net.cpp:150] Setting up conv3/scale
I0829 11:12:45.343808 17087 net.cpp:157] Top shape: 64 128 12 12 (1179648)
I0829 11:12:45.343816 17087 net.cpp:165] Memory required for data: 535968768
I0829 11:12:45.343843 17087 layer_factory.hpp:77] Creating layer conv3/relu
I0829 11:12:45.343860 17087 net.cpp:100] Creating Layer conv3/relu
I0829 11:12:45.343869 17087 net.cpp:434] conv3/relu <- conv3
I0829 11:12:45.343880 17087 net.cpp:395] conv3/relu -> conv3 (in-place)
I0829 11:12:45.344733 17087 net.cpp:150] Setting up conv3/relu
I0829 11:12:45.344753 17087 net.cpp:157] Top shape: 64 128 12 12 (1179648)
I0829 11:12:45.344758 17087 net.cpp:165] Memory required for data: 540687360
I0829 11:12:45.344763 17087 layer_factory.hpp:77] Creating layer conv4/dw
I0829 11:12:45.344780 17087 net.cpp:100] Creating Layer conv4/dw
I0829 11:12:45.344787 17087 net.cpp:434] conv4/dw <- conv3
I0829 11:12:45.344805 17087 net.cpp:408] conv4/dw -> conv4/dw
I0829 11:12:45.782223 17087 net.cpp:150] Setting up conv4/dw
I0829 11:12:45.782263 17087 net.cpp:157] Top shape: 64 128 12 12 (1179648)
I0829 11:12:45.782269 17087 net.cpp:165] Memory required for data: 545405952
I0829 11:12:45.782291 17087 layer_factory.hpp:77] Creating layer conv4/dw/bn
I0829 11:12:45.782318 17087 net.cpp:100] Creating Layer conv4/dw/bn
I0829 11:12:45.782336 17087 net.cpp:434] conv4/dw/bn <- conv4/dw
I0829 11:12:45.782351 17087 net.cpp:395] conv4/dw/bn -> conv4/dw (in-place)
I0829 11:12:45.783226 17087 net.cpp:150] Setting up conv4/dw/bn
I0829 11:12:45.783247 17087 net.cpp:157] Top shape: 64 128 12 12 (1179648)
I0829 11:12:45.783252 17087 net.cpp:165] Memory required for data: 550124544
I0829 11:12:45.783267 17087 layer_factory.hpp:77] Creating layer conv4/dw/scale
I0829 11:12:45.783295 17087 net.cpp:100] Creating Layer conv4/dw/scale
I0829 11:12:45.783308 17087 net.cpp:434] conv4/dw/scale <- conv4/dw
I0829 11:12:45.783320 17087 net.cpp:395] conv4/dw/scale -> conv4/dw (in-place)
I0829 11:12:45.783478 17087 layer_factory.hpp:77] Creating layer conv4/dw/scale
I0829 11:12:45.783865 17087 net.cpp:150] Setting up conv4/dw/scale
I0829 11:12:45.783884 17087 net.cpp:157] Top shape: 64 128 12 12 (1179648)
I0829 11:12:45.783892 17087 net.cpp:165] Memory required for data: 554843136
I0829 11:12:45.783933 17087 layer_factory.hpp:77] Creating layer conv4/dw/relu
I0829 11:12:45.783953 17087 net.cpp:100] Creating Layer conv4/dw/relu
I0829 11:12:45.783965 17087 net.cpp:434] conv4/dw/relu <- conv4/dw
I0829 11:12:45.783977 17087 net.cpp:395] conv4/dw/relu -> conv4/dw (in-place)
I0829 11:12:45.786103 17087 net.cpp:150] Setting up conv4/dw/relu
I0829 11:12:45.786139 17087 net.cpp:157] Top shape: 64 128 12 12 (1179648)
I0829 11:12:45.786149 17087 net.cpp:165] Memory required for data: 559561728
I0829 11:12:45.786159 17087 layer_factory.hpp:77] Creating layer conv4
I0829 11:12:45.786190 17087 net.cpp:100] Creating Layer conv4
I0829 11:12:45.786202 17087 net.cpp:434] conv4 <- conv4/dw
I0829 11:12:45.786224 17087 net.cpp:408] conv4 -> conv4
I0829 11:12:45.790501 17087 net.cpp:150] Setting up conv4
I0829 11:12:45.790534 17087 net.cpp:157] Top shape: 64 128 12 12 (1179648)
I0829 11:12:45.790542 17087 net.cpp:165] Memory required for data: 564280320
I0829 11:12:45.790557 17087 layer_factory.hpp:77] Creating layer conv4/bn
I0829 11:12:45.790572 17087 net.cpp:100] Creating Layer conv4/bn
I0829 11:12:45.790586 17087 net.cpp:434] conv4/bn <- conv4
I0829 11:12:45.790604 17087 net.cpp:395] conv4/bn -> conv4 (in-place)
I0829 11:12:45.791273 17087 net.cpp:150] Setting up conv4/bn
I0829 11:12:45.791306 17087 net.cpp:157] Top shape: 64 128 12 12 (1179648)
I0829 11:12:45.791314 17087 net.cpp:165] Memory required for data: 568998912
I0829 11:12:45.791332 17087 layer_factory.hpp:77] Creating layer conv4/scale
I0829 11:12:45.791350 17087 net.cpp:100] Creating Layer conv4/scale
I0829 11:12:45.791363 17087 net.cpp:434] conv4/scale <- conv4
I0829 11:12:45.791380 17087 net.cpp:395] conv4/scale -> conv4 (in-place)
I0829 11:12:45.791519 17087 layer_factory.hpp:77] Creating layer conv4/scale
I0829 11:12:45.791903 17087 net.cpp:150] Setting up conv4/scale
I0829 11:12:45.791919 17087 net.cpp:157] Top shape: 64 128 12 12 (1179648)
I0829 11:12:45.791927 17087 net.cpp:165] Memory required for data: 573717504
I0829 11:12:45.791942 17087 layer_factory.hpp:77] Creating layer conv4/relu
I0829 11:12:45.791955 17087 net.cpp:100] Creating Layer conv4/relu
I0829 11:12:45.791965 17087 net.cpp:434] conv4/relu <- conv4
I0829 11:12:45.791981 17087 net.cpp:395] conv4/relu -> conv4 (in-place)
I0829 11:12:45.792788 17087 net.cpp:150] Setting up conv4/relu
I0829 11:12:45.792809 17087 net.cpp:157] Top shape: 64 128 12 12 (1179648)
I0829 11:12:45.792817 17087 net.cpp:165] Memory required for data: 578436096
I0829 11:12:45.792826 17087 layer_factory.hpp:77] Creating layer conv5/dw
I0829 11:12:45.792853 17087 net.cpp:100] Creating Layer conv5/dw
I0829 11:12:45.792865 17087 net.cpp:434] conv5/dw <- conv4
I0829 11:12:45.792879 17087 net.cpp:408] conv5/dw -> conv5/dw
I0829 11:12:46.221544 17087 net.cpp:150] Setting up conv5/dw
I0829 11:12:46.221580 17087 net.cpp:157] Top shape: 64 128 12 12 (1179648)
I0829 11:12:46.221585 17087 net.cpp:165] Memory required for data: 583154688
I0829 11:12:46.221599 17087 layer_factory.hpp:77] Creating layer conv5/dw/bn
I0829 11:12:46.221628 17087 net.cpp:100] Creating Layer conv5/dw/bn
I0829 11:12:46.221643 17087 net.cpp:434] conv5/dw/bn <- conv5/dw
I0829 11:12:46.221657 17087 net.cpp:395] conv5/dw/bn -> conv5/dw (in-place)
I0829 11:12:46.222530 17087 net.cpp:150] Setting up conv5/dw/bn
I0829 11:12:46.222546 17087 net.cpp:157] Top shape: 64 128 12 12 (1179648)
I0829 11:12:46.222551 17087 net.cpp:165] Memory required for data: 587873280
I0829 11:12:46.222563 17087 layer_factory.hpp:77] Creating layer conv5/dw/scale
I0829 11:12:46.222576 17087 net.cpp:100] Creating Layer conv5/dw/scale
I0829 11:12:46.222584 17087 net.cpp:434] conv5/dw/scale <- conv5/dw
I0829 11:12:46.222599 17087 net.cpp:395] conv5/dw/scale -> conv5/dw (in-place)
I0829 11:12:46.222762 17087 layer_factory.hpp:77] Creating layer conv5/dw/scale
I0829 11:12:46.223248 17087 net.cpp:150] Setting up conv5/dw/scale
I0829 11:12:46.223263 17087 net.cpp:157] Top shape: 64 128 12 12 (1179648)
I0829 11:12:46.223268 17087 net.cpp:165] Memory required for data: 592591872
I0829 11:12:46.223325 17087 layer_factory.hpp:77] Creating layer conv5/dw/relu
I0829 11:12:46.223337 17087 net.cpp:100] Creating Layer conv5/dw/relu
I0829 11:12:46.223350 17087 net.cpp:434] conv5/dw/relu <- conv5/dw
I0829 11:12:46.223359 17087 net.cpp:395] conv5/dw/relu -> conv5/dw (in-place)
I0829 11:12:46.224155 17087 net.cpp:150] Setting up conv5/dw/relu
I0829 11:12:46.224174 17087 net.cpp:157] Top shape: 64 128 12 12 (1179648)
I0829 11:12:46.224179 17087 net.cpp:165] Memory required for data: 597310464
I0829 11:12:46.224184 17087 layer_factory.hpp:77] Creating layer conv5
I0829 11:12:46.224205 17087 net.cpp:100] Creating Layer conv5
I0829 11:12:46.224215 17087 net.cpp:434] conv5 <- conv5/dw
I0829 11:12:46.224232 17087 net.cpp:408] conv5 -> conv5
I0829 11:12:46.229054 17087 net.cpp:150] Setting up conv5
I0829 11:12:46.229086 17087 net.cpp:157] Top shape: 64 256 12 12 (2359296)
I0829 11:12:46.229092 17087 net.cpp:165] Memory required for data: 606747648
I0829 11:12:46.229104 17087 layer_factory.hpp:77] Creating layer conv5/bn
I0829 11:12:46.229122 17087 net.cpp:100] Creating Layer conv5/bn
I0829 11:12:46.229132 17087 net.cpp:434] conv5/bn <- conv5
I0829 11:12:46.229148 17087 net.cpp:395] conv5/bn -> conv5 (in-place)
I0829 11:12:46.230008 17087 net.cpp:150] Setting up conv5/bn
I0829 11:12:46.230023 17087 net.cpp:157] Top shape: 64 256 12 12 (2359296)
I0829 11:12:46.230028 17087 net.cpp:165] Memory required for data: 616184832
I0829 11:12:46.230041 17087 layer_factory.hpp:77] Creating layer conv5/scale
I0829 11:12:46.230052 17087 net.cpp:100] Creating Layer conv5/scale
I0829 11:12:46.230060 17087 net.cpp:434] conv5/scale <- conv5
I0829 11:12:46.230072 17087 net.cpp:395] conv5/scale -> conv5 (in-place)
I0829 11:12:46.230242 17087 layer_factory.hpp:77] Creating layer conv5/scale
I0829 11:12:46.230724 17087 net.cpp:150] Setting up conv5/scale
I0829 11:12:46.230739 17087 net.cpp:157] Top shape: 64 256 12 12 (2359296)
I0829 11:12:46.230743 17087 net.cpp:165] Memory required for data: 625622016
I0829 11:12:46.230752 17087 layer_factory.hpp:77] Creating layer conv5/relu
I0829 11:12:46.230763 17087 net.cpp:100] Creating Layer conv5/relu
I0829 11:12:46.230772 17087 net.cpp:434] conv5/relu <- conv5
I0829 11:12:46.230782 17087 net.cpp:395] conv5/relu -> conv5 (in-place)
I0829 11:12:46.231567 17087 net.cpp:150] Setting up conv5/relu
I0829 11:12:46.231587 17087 net.cpp:157] Top shape: 64 256 12 12 (2359296)
I0829 11:12:46.231592 17087 net.cpp:165] Memory required for data: 635059200
I0829 11:12:46.231598 17087 layer_factory.hpp:77] Creating layer pool5
I0829 11:12:46.231611 17087 net.cpp:100] Creating Layer pool5
I0829 11:12:46.231621 17087 net.cpp:434] pool5 <- conv5
I0829 11:12:46.231632 17087 net.cpp:408] pool5 -> pool5
I0829 11:12:46.231828 17087 net.cpp:150] Setting up pool5
I0829 11:12:46.231848 17087 net.cpp:157] Top shape: 64 256 6 6 (589824)
I0829 11:12:46.231853 17087 net.cpp:165] Memory required for data: 637418496
I0829 11:12:46.231861 17087 layer_factory.hpp:77] Creating layer fc6
I0829 11:12:46.231880 17087 net.cpp:100] Creating Layer fc6
I0829 11:12:46.231892 17087 net.cpp:434] fc6 <- pool5
I0829 11:12:46.231905 17087 net.cpp:408] fc6 -> fc6
I0829 11:12:46.578155 17087 net.cpp:150] Setting up fc6
I0829 11:12:46.578193 17087 net.cpp:157] Top shape: 64 2048 (131072)
I0829 11:12:46.578199 17087 net.cpp:165] Memory required for data: 637942784
I0829 11:12:46.578213 17087 layer_factory.hpp:77] Creating layer relu6
I0829 11:12:46.578228 17087 net.cpp:100] Creating Layer relu6
I0829 11:12:46.578238 17087 net.cpp:434] relu6 <- fc6
I0829 11:12:46.578258 17087 net.cpp:395] relu6 -> fc6 (in-place)
I0829 11:12:46.579960 17087 net.cpp:150] Setting up relu6
I0829 11:12:46.579985 17087 net.cpp:157] Top shape: 64 2048 (131072)
I0829 11:12:46.579991 17087 net.cpp:165] Memory required for data: 638467072
I0829 11:12:46.579998 17087 layer_factory.hpp:77] Creating layer drop6
I0829 11:12:46.580014 17087 net.cpp:100] Creating Layer drop6
I0829 11:12:46.580024 17087 net.cpp:434] drop6 <- fc6
I0829 11:12:46.580039 17087 net.cpp:395] drop6 -> fc6 (in-place)
I0829 11:12:46.580188 17087 net.cpp:150] Setting up drop6
I0829 11:12:46.580202 17087 net.cpp:157] Top shape: 64 2048 (131072)
I0829 11:12:46.580207 17087 net.cpp:165] Memory required for data: 638991360
I0829 11:12:46.580212 17087 layer_factory.hpp:77] Creating layer fc7
I0829 11:12:46.580224 17087 net.cpp:100] Creating Layer fc7
I0829 11:12:46.580230 17087 net.cpp:434] fc7 <- fc6
I0829 11:12:46.580246 17087 net.cpp:408] fc7 -> fc7
I0829 11:12:46.733922 17087 net.cpp:150] Setting up fc7
I0829 11:12:46.733971 17087 net.cpp:157] Top shape: 64 4096 (262144)
I0829 11:12:46.733983 17087 net.cpp:165] Memory required for data: 640039936
I0829 11:12:46.734004 17087 layer_factory.hpp:77] Creating layer relu7
I0829 11:12:46.734022 17087 net.cpp:100] Creating Layer relu7
I0829 11:12:46.734071 17087 net.cpp:434] relu7 <- fc7
I0829 11:12:46.734115 17087 net.cpp:395] relu7 -> fc7 (in-place)
I0829 11:12:46.735007 17087 net.cpp:150] Setting up relu7
I0829 11:12:46.735029 17087 net.cpp:157] Top shape: 64 4096 (262144)
I0829 11:12:46.735038 17087 net.cpp:165] Memory required for data: 641088512
I0829 11:12:46.735046 17087 layer_factory.hpp:77] Creating layer drop7
I0829 11:12:46.735066 17087 net.cpp:100] Creating Layer drop7
I0829 11:12:46.735085 17087 net.cpp:434] drop7 <- fc7
I0829 11:12:46.735102 17087 net.cpp:395] drop7 -> fc7 (in-place)
I0829 11:12:46.735251 17087 net.cpp:150] Setting up drop7
I0829 11:12:46.735270 17087 net.cpp:157] Top shape: 64 4096 (262144)
I0829 11:12:46.735288 17087 net.cpp:165] Memory required for data: 642137088
I0829 11:12:46.735297 17087 layer_factory.hpp:77] Creating layer fc8
I0829 11:12:46.735318 17087 net.cpp:100] Creating Layer fc8
I0829 11:12:46.735353 17087 net.cpp:434] fc8 <- fc7
I0829 11:12:46.735394 17087 net.cpp:408] fc8 -> fc8
I0829 11:12:46.811518 17087 net.cpp:150] Setting up fc8
I0829 11:12:46.811554 17087 net.cpp:157] Top shape: 64 1000 (64000)
I0829 11:12:46.811560 17087 net.cpp:165] Memory required for data: 642393088
I0829 11:12:46.811589 17087 layer_factory.hpp:77] Creating layer loss
I0829 11:12:46.811604 17087 net.cpp:100] Creating Layer loss
I0829 11:12:46.811615 17087 net.cpp:434] loss <- fc8
I0829 11:12:46.811627 17087 net.cpp:434] loss <- label
I0829 11:12:46.811647 17087 net.cpp:408] loss -> loss
I0829 11:12:46.811681 17087 layer_factory.hpp:77] Creating layer loss
…
I0829 11:12:46.814369 17087 net.cpp:322] The NetState phase (1) differed from the phase (0) specified by a rule in layer data
I0829 11:12:46.814795 17087 net.cpp:58] Initializing net from parameters: 
name: "AlexNet"
state {
  phase: TEST
}
layer {
  name: "data"
  type: "Data"
  top: "data"
  top: "label"
  include {
    phase: TEST
  }
  transform_param {
    mirror: false
    crop_size: 227
    mean_file: "/home/ch/data/imagenet_mean.binaryproto"
  }
  data_param {
    source: "/home/ch/data/lmdb/val_lmdb"
    batch_size: 16
    backend: LMDB
  }
}
layer {
  name: "conv1"
  type: "Convolution"
  bottom: "data"
  top: "conv1"
  param {
    lr_mult: 1
    decay_mult: 1
  }
  param {
    lr_mult: 2
    decay_mult: 0
  }
  convolution_param {
    num_output: 96
    kernel_size: 11
    stride: 4
    weight_filler {
      type: "gaussian"
      std: 0.01
    }
    bias_filler {
      type: "constant"
      value: 0
    }
  }
}
layer {
  name: "conv1/bn"
  type: "BatchNorm"
  bottom: "conv1"
  top: "conv1"
}
layer {
  name: "conv1/scale"
  type: "Scale"
  bottom: "conv1"
  top: "conv1"
  param {
    lr_mult: 0.1
    decay_mult: 0
  }
  param {
    lr_mult: 0.2
    decay_mult: 0
  }
  scale_param {
    filler {
      value: 1
    }
    bias_term: true
    bias_filler {
      value: 0
    }
  }
}
layer {
  name: "relu1"
  type: "ReLU"
  bottom: "conv1"
  top: "conv1"
}
layer {
  name: "pool1"
  type: "Pooling"
  bottom: "conv1"
  top: "pool1"
  pooling_param {
    pool: MAX
    kernel_size: 3
    stride: 2
  }
}
layer {
  name: "conv2/dw"
  type: "Convolution"
  bottom: "pool1"
  top: "conv2/dw"
  param {
    lr_mult: 1
    decay_mult: 1
  }
  param {
    lr_mult: 2
    decay_mult: 0
  }
  convolution_param {
    num_output: 96
    pad: 1
    kernel_size: 5
    group: 96
    weight_filler {
      type: "gaussian"
      std: 0.01
    }
    bias_filler {
      type: "constant"
      value: 0.1
    }
  }
}
layer {
  name: "conv2/dw/bn"
  type: "BatchNorm"
  bottom: "conv2/dw"
  top: "conv2/dw"
}
layer {
  name: "conv2/dw/scale"
  type: "Scale"
  bottom: "conv2/dw"
  top: "conv2/dw"
  param {
    lr_mult: 0.1
    decay_mult: 0
  }
  param {
    lr_mult: 0.2
    decay_mult: 0
  }
  scale_param {
    filler {
      value: 1
    }
    bias_term: true
    bias_filler {
      value: 0
    }
  }
}
layer {
  name: "conv2/dw/relu"
  type: "ReLU"
  bottom: "conv2/dw"
  top: "conv2/dw"
}
layer {
  name: "conv2"
  type: "Convolution"
  bottom: "conv2/dw"
  top: "conv2"
  param {
    lr_mult: 1
    decay_mult: 1
  }
  convolution_param {
    num_output: 128
    bias_term: false
    kernel_size: 1
    weight_filler {
      type: "gaussian"
      std: 0.01
    }
    bias_filler {
      type: "constant"
      value: 0.1
    }
  }
}
layer {
  name: "conv2/bn"
  type: "BatchNorm"
  bottom: "conv2"
  top: "conv2"
}
layer {
  name: "conv2/scale"
  type: "Scale"
  bottom: "conv2"
  top: "conv2"
  param {
    lr_mult: 0.1
    decay_mult: 0
  }
  param {
    lr_mult: 0.2
    decay_mult: 0
  }
  scale_param {
    filler {
      value: 1
    }
    bias_term: true
    bias_filler {
      value: 0
    }
  }
}
layer {
  name: "conv2/relu"
  type: "ReLU"
  bottom: "conv2"
  top: "conv2"
}
layer {
  name: "pool2"
  type: "Pooling"
  bottom: "conv2"
  top: "pool2"
  pooling_param {
    pool: MAX
    kernel_size: 3
    stride: 2
  }
}
layer {
  name: "conv3/dw"
  type: "Convolution"
  bottom: "pool2"
  top: "conv3/dw"
  param {
    lr_mult: 1
    decay_mult: 1
  }
  param {
    lr_mult: 2
    decay_mult: 0
  }
  convolution_param {
    num_output: 128
    pad: 1
    kernel_size: 3
    group: 128
    weight_filler {
      type: "gaussian"
      std: 0.01
    }
    bias_filler {
      type: "constant"
      value: 0.1
    }
  }
}
layer {
  name: "conv3/dw/bn"
  type: "BatchNorm"
  bottom: "conv3/dw"
  top: "conv3/dw"
}
layer {
  name: "conv3/dw/scale"
  type: "Scale"
  bottom: "conv3/dw"
  top: "conv3/dw"
  param {
    lr_mult: 0.1
    decay_mult: 0
  }
  param {
    lr_mult: 0.2
    decay_mult: 0
  }
  scale_param {
    filler {
      value: 1
    }
    bias_term: true
    bias_filler {
      value: 0
    }
  }
}
layer {
  name: "conv3/dw/relu"
  type: "ReLU"
  bottom: "conv3/dw"
  top: "conv3/dw"
}
layer {
  name: "conv3"
  type: "Convolution"
  bottom: "conv3/dw"
  top: "conv3"
  param {
    lr_mult: 1
    decay_mult: 1
  }
  convolution_param {
    num_output: 128
    bias_term: false
    kernel_size: 1
    weight_filler {
      type: "gaussian"
      std: 0.01
    }
    bias_filler {
      type: "constant"
      value: 0.1
    }
  }
}
layer {
  name: "conv3/bn"
  type: "BatchNorm"
  bottom: "conv3"
  top: "conv3"
}
layer {
  name: "conv3/scale"
  type: "Scale"
  bottom: "conv3"
  top: "conv3"
  param {
    lr_mult: 0.1
    decay_mult: 0
  }
  param {
    lr_mult: 0.2
    decay_mult: 0
  }
  scale_param {
    filler {
      value: 1
    }
    bias_term: true
    bias_filler {
      value: 0
    }
  }
}
layer {
  name: "conv3/relu"
  type: "ReLU"
  bottom: "conv3"
  top: "conv3"
}
layer {
  name: "conv4/dw"
  type: "Convolution"
  bottom: "conv3"
  top: "conv4/dw"
  param {
    lr_mult: 1
    decay_mult: 1
  }
  param {
    lr_mult: 2
    decay_mult: 0
  }
  convolution_param {
    num_output: 128
    pad: 1
    kernel_size: 3
    group: 128
    weight_filler {
      type: "gaussian"
      std: 0.01
    }
    bias_filler {
      type: "constant"
      value: 0.1
    }
  }
}
layer {
  name: "conv4/dw/bn"
  type: "BatchNorm"
  bottom: "conv4/dw"
  top: "conv4/dw"
}
layer {
  name: "conv4/dw/scale"
  type: "Scale"
  bottom: "conv4/dw"
  top: "conv4/dw"
  param {
    lr_mult: 0.1
    decay_mult: 0
  }
  param {
    lr_mult: 0.2
    decay_mult: 0
  }
  scale_param {
    filler {
      value: 1
    }
    bias_term: true
    bias_filler {
      value: 0
    }
  }
}
layer {
  name: "conv4/dw/relu"
  type: "ReLU"
  bottom: "conv4/dw"
  top: "conv4/dw"
}
layer {
  name: "conv4"
  type: "Convolution"
  bottom: "conv4/dw"
  top: "conv4"
  param {
    lr_mult: 1
    decay_mult: 1
  }
  convolution_param {
    num_output: 128
    bias_term: false
    kernel_size: 1
    weight_filler {
      type: "gaussian"
      std: 0.01
    }
    bias_filler {
      type: "constant"
      value: 0.1
    }
  }
}
layer {
  name: "conv4/bn"
  type: "BatchNorm"
  bottom: "conv4"
  top: "conv4"
}
layer {
  name: "conv4/scale"
  type: "Scale"
  bottom: "conv4"
  top: "conv4"
  param {
    lr_mult: 0.1
    decay_mult: 0
  }
  param {
    lr_mult: 0.2
    decay_mult: 0
  }
  scale_param {
    filler {
      value: 1
    }
    bias_term: true
    bias_filler {
      value: 0
    }
  }
}
layer {
  name: "conv4/relu"
  type: "ReLU"
  bottom: "conv4"
  top: "conv4"
}
layer {
  name: "conv5/dw"
  type: "Convolution"
  bottom: "conv4"
  top: "conv5/dw"
  param {
    lr_mult: 1
    decay_mult: 1
  }
  param {
    lr_mult: 2
    decay_mult: 0
  }
  convolution_param {
    num_output: 128
    pad: 1
    kernel_size: 3
    group: 128
    weight_filler {
      type: "gaussian"
      std: 0.01
    }
    bias_filler {
      type: "constant"
      value: 0.1
    }
  }
}
layer {
  name: "conv5/dw/bn"
  type: "BatchNorm"
  bottom: "conv5/dw"
  top: "conv5/dw"
}
layer {
  name: "conv5/dw/scale"
  type: "Scale"
  bottom: "conv5/dw"
  top: "conv5/dw"
  param {
    lr_mult: 0.1
    decay_mult: 0
  }
  param {
    lr_mult: 0.2
    decay_mult: 0
  }
  scale_param {
    filler {
      value: 1
    }
    bias_term: true
    bias_filler {
      value: 0
    }
  }
}
layer {
  name: "conv5/dw/relu"
  type: "ReLU"
  bottom: "conv5/dw"
  top: "conv5/dw"
}
layer {
  name: "conv5"
  type: "Convolution"
  bottom: "conv5/dw"
  top: "conv5"
  param {
    lr_mult: 1
    decay_mult: 1
  }
  convolution_param {
    num_output: 256
    bias_term: false
    kernel_size: 1
    weight_filler {
      type: "gaussian"
      std: 0.01
    }
    bias_filler {
      type: "constant"
      value: 0.1
    }
  }
}
layer {
  name: "conv5/bn"
  type: "BatchNorm"
  bottom: "conv5"
  top: "conv5"
}
layer {
  name: "conv5/scale"
  type: "Scale"
  bottom: "conv5"
  top: "conv5"
  param {
    lr_mult: 0.1
    decay_mult: 0
  }
  param {
    lr_mult: 0.2
    decay_mult: 0
  }
  scale_param {
    filler {
      value: 1
    }
    bias_term: true
    bias_filler {
      value: 0
    }
  }
}
layer {
  name: "conv5/relu"
  type: "ReLU"
  bottom: "conv5"
  top: "conv5"
}
layer {
  name: "pool5"
  type: "Pooling"
  bottom: "conv5"
  top: "pool5"
  pooling_param {
    pool: MAX
    kernel_size: 3
    stride: 2
  }
}
layer {
  name: "fc6"
  type: "InnerProduct"
  bottom: "pool5"
  top: "fc6"
  param {
    lr_mult: 1
    decay_mult: 1
  }
  param {
    lr_mult: 2
    decay_mult: 0
  }
  inner_product_param {
    num_output: 2048
    weight_filler {
      type: "gaussian"
      std: 0.005
    }
    bias_filler {
      type: "constant"
      value: 0.1
    }
  }
}
layer {
  name: "relu6"
  type: "ReLU"
  bottom: "fc6"
  top: "fc6"
}
layer {
  name: "drop6"
  type: "Dropout"
  bottom: "fc6"
  top: "fc6"
  dropout_param {
    dropout_ratio: 0.5
  }
}
layer {
  name: "fc7"
  type: "InnerProduct"
  bottom: "fc6"
  top: "fc7"
  param {
    lr_mult: 1
    decay_mult: 1
  }
  param {
    lr_mult: 2
    decay_mult: 0
  }
  inner_product_param {
    num_output: 4096
    weight_filler {
      type: "gaussian"
      std: 0.005
    }
    bias_filler {
      type: "constant"
      value: 0.1
    }
  }
}
layer {
  name: "relu7"
  type: "ReLU"
  bottom: "fc7"
  top: "fc7"
}
layer {
  name: "drop7"
  type: "Dropout"
  bottom: "fc7"
  top: "fc7"
  dropout_param {
    dropout_ratio: 0.5
  }
}
layer {
  name: "fc8"
  type: "InnerProduct"
  bottom: "fc7"
  top: "fc8"
  param {
    lr_mult: 1
    decay_mult: 1
  }
  param {
    lr_mult: 2
    decay_mult: 0
  }
  inner_product_param {
    num_output: 1000
    weight_filler {
      type: "gaussian"
      std: 0.01
    }
    bias_filler {
      type: "constant"
      value: 0
    }
  }
}
layer {
  name: "accuracy"
  type: "Accuracy"
  bottom: "fc8"
  bottom: "label"
  top: "accuracy"
  include {
    phase: TEST
  }
}
layer {
  name: "loss"
  type: "SoftmaxWithLoss"
  bottom: "fc8"
  bottom: "label"
  top: "loss"
}
I0829 11:12:46.815135 17087 layer_factory.hpp:77] Creating layer data
I0829 11:12:46.815362 17087 net.cpp:100] Creating Layer data
I0829 11:12:46.815383 17087 net.cpp:408] data -> data
I0829 11:12:46.815404 17087 net.cpp:408] data -> label
I0829 11:12:46.815430 17087 data_transformer.cpp:27] Loading mean file from: /home/ch/data/imagenet_mean.binaryproto
I0829 11:12:46.859912 17097 db_lmdb.cpp:35] Opened lmdb /home/ch/data/lmdb/val_lmdb
I0829 11:12:46.956163 17087 data_layer.cpp:41] output data size: 16,3,227,227
I0829 11:12:46.982203 17087 net.cpp:150] Setting up data
I0829 11:12:46.982306 17087 net.cpp:157] Top shape: 16 3 227 227 (2473392)
I0829 11:12:46.982344 17087 net.cpp:157] Top shape: 16 (16)
I0829 11:12:46.982367 17087 net.cpp:165] Memory required for data: 9893632
I0829 11:12:46.982391 17087 layer_factory.hpp:77] Creating layer label_data_1_split
I0829 11:12:46.982430 17087 net.cpp:100] Creating Layer label_data_1_split
I0829 11:12:46.982453 17087 net.cpp:434] label_data_1_split <- label
I0829 11:12:46.982481 17087 net.cpp:408] label_data_1_split -> label_data_1_split_0
I0829 11:12:46.982515 17087 net.cpp:408] label_data_1_split -> label_data_1_split_1
I0829 11:12:46.984091 17087 net.cpp:150] Setting up label_data_1_split
I0829 11:12:46.984128 17087 net.cpp:157] Top shape: 16 (16)
I0829 11:12:46.984139 17087 net.cpp:157] Top shape: 16 (16)
I0829 11:12:46.984146 17087 net.cpp:165] Memory required for data: 9893760
I0829 11:12:46.984156 17087 layer_factory.hpp:77] Creating layer conv1
I0829 11:12:46.984189 17087 net.cpp:100] Creating Layer conv1
I0829 11:12:46.984230 17087 net.cpp:434] conv1 <- data
I0829 11:12:46.984266 17087 net.cpp:408] conv1 -> conv1
I0829 11:12:46.992297 17087 net.cpp:150] Setting up conv1
I0829 11:12:46.992342 17087 net.cpp:157] Top shape: 16 96 55 55 (4646400)
I0829 11:12:46.992352 17087 net.cpp:165] Memory required for data: 28479360
I0829 11:12:46.992382 17087 layer_factory.hpp:77] Creating layer conv1/bn
I0829 11:12:46.992432 17087 net.cpp:100] Creating Layer conv1/bn
I0829 11:12:46.992465 17087 net.cpp:434] conv1/bn <- conv1
I0829 11:12:46.992499 17087 net.cpp:395] conv1/bn -> conv1 (in-place)
I0829 11:12:46.993567 17087 net.cpp:150] Setting up conv1/bn
I0829 11:12:46.993602 17087 net.cpp:157] Top shape: 16 96 55 55 (4646400)
I0829 11:12:46.993610 17087 net.cpp:165] Memory required for data: 47064960
I0829 11:12:46.993646 17087 layer_factory.hpp:77] Creating layer conv1/scale
I0829 11:12:46.993702 17087 net.cpp:100] Creating Layer conv1/scale
I0829 11:12:46.993813 17087 net.cpp:434] conv1/scale <- conv1
I0829 11:12:46.993860 17087 net.cpp:395] conv1/scale -> conv1 (in-place)
I0829 11:12:46.994221 17087 layer_factory.hpp:77] Creating layer conv1/scale
I0829 11:12:46.995074 17087 net.cpp:150] Setting up conv1/scale
I0829 11:12:46.995110 17087 net.cpp:157] Top shape: 16 96 55 55 (4646400)
I0829 11:12:46.995117 17087 net.cpp:165] Memory required for data: 65650560
I0829 11:12:46.995137 17087 layer_factory.hpp:77] Creating layer relu1
I0829 11:12:46.995154 17087 net.cpp:100] Creating Layer relu1
I0829 11:12:46.995163 17087 net.cpp:434] relu1 <- conv1
I0829 11:12:46.995177 17087 net.cpp:395] relu1 -> conv1 (in-place)
I0829 11:12:46.997354 17087 net.cpp:150] Setting up relu1
I0829 11:12:46.997392 17087 net.cpp:157] Top shape: 16 96 55 55 (4646400)
I0829 11:12:46.997401 17087 net.cpp:165] Memory required for data: 84236160
I0829 11:12:46.997444 17087 layer_factory.hpp:77] Creating layer pool1
I0829 11:12:46.997467 17087 net.cpp:100] Creating Layer pool1
I0829 11:12:46.997476 17087 net.cpp:434] pool1 <- conv1
I0829 11:12:46.997493 17087 net.cpp:408] pool1 -> pool1
I0829 11:12:46.997898 17087 net.cpp:150] Setting up pool1
I0829 11:12:46.997923 17087 net.cpp:157] Top shape: 16 96 27 27 (1119744)
I0829 11:12:46.997932 17087 net.cpp:165] Memory required for data: 88715136
I0829 11:12:46.997941 17087 layer_factory.hpp:77] Creating layer conv2/dw
I0829 11:12:46.997965 17087 net.cpp:100] Creating Layer conv2/dw
I0829 11:12:46.997975 17087 net.cpp:434] conv2/dw <- pool1
I0829 11:12:46.997990 17087 net.cpp:408] conv2/dw -> conv2/dw
I0829 11:12:47.355620 17087 net.cpp:150] Setting up conv2/dw
I0829 11:12:47.355666 17087 net.cpp:157] Top shape: 16 96 25 25 (960000)
I0829 11:12:47.355676 17087 net.cpp:165] Memory required for data: 92555136
I0829 11:12:47.355706 17087 layer_factory.hpp:77] Creating layer conv2/dw/bn
I0829 11:12:47.355742 17087 net.cpp:100] Creating Layer conv2/dw/bn
I0829 11:12:47.355753 17087 net.cpp:434] conv2/dw/bn <- conv2/dw
I0829 11:12:47.355769 17087 net.cpp:395] conv2/dw/bn -> conv2/dw (in-place)
I0829 11:12:47.356900 17087 net.cpp:150] Setting up conv2/dw/bn
I0829 11:12:47.356920 17087 net.cpp:157] Top shape: 16 96 25 25 (960000)
I0829 11:12:47.356928 17087 net.cpp:165] Memory required for data: 96395136
I0829 11:12:47.356948 17087 layer_factory.hpp:77] Creating layer conv2/dw/scale
I0829 11:12:47.356966 17087 net.cpp:100] Creating Layer conv2/dw/scale
I0829 11:12:47.356977 17087 net.cpp:434] conv2/dw/scale <- conv2/dw
I0829 11:12:47.356992 17087 net.cpp:395] conv2/dw/scale -> conv2/dw (in-place)
I0829 11:12:47.357192 17087 layer_factory.hpp:77] Creating layer conv2/dw/scale
I0829 11:12:47.357820 17087 net.cpp:150] Setting up conv2/dw/scale
I0829 11:12:47.357839 17087 net.cpp:157] Top shape: 16 96 25 25 (960000)
I0829 11:12:47.357847 17087 net.cpp:165] Memory required for data: 100235136
I0829 11:12:47.357862 17087 layer_factory.hpp:77] Creating layer conv2/dw/relu
I0829 11:12:47.357878 17087 net.cpp:100] Creating Layer conv2/dw/relu
I0829 11:12:47.357888 17087 net.cpp:434] conv2/dw/relu <- conv2/dw
I0829 11:12:47.357900 17087 net.cpp:395] conv2/dw/relu -> conv2/dw (in-place)
I0829 11:12:47.358748 17087 net.cpp:150] Setting up conv2/dw/relu
I0829 11:12:47.358769 17087 net.cpp:157] Top shape: 16 96 25 25 (960000)
I0829 11:12:47.358778 17087 net.cpp:165] Memory required for data: 104075136
I0829 11:12:47.358786 17087 layer_factory.hpp:77] Creating layer conv2
I0829 11:12:47.358815 17087 net.cpp:100] Creating Layer conv2
I0829 11:12:47.358825 17087 net.cpp:434] conv2 <- conv2/dw
I0829 11:12:47.358844 17087 net.cpp:408] conv2 -> conv2
I0829 11:12:47.363447 17087 net.cpp:150] Setting up conv2
I0829 11:12:47.363479 17087 net.cpp:157] Top shape: 16 128 25 25 (1280000)
I0829 11:12:47.363488 17087 net.cpp:165] Memory required for data: 109195136
I0829 11:12:47.363502 17087 layer_factory.hpp:77] Creating layer conv2/bn
I0829 11:12:47.363523 17087 net.cpp:100] Creating Layer conv2/bn
I0829 11:12:47.363540 17087 net.cpp:434] conv2/bn <- conv2
I0829 11:12:47.363554 17087 net.cpp:395] conv2/bn -> conv2 (in-place)
I0829 11:12:47.364614 17087 net.cpp:150] Setting up conv2/bn
I0829 11:12:47.364632 17087 net.cpp:157] Top shape: 16 128 25 25 (1280000)
I0829 11:12:47.364640 17087 net.cpp:165] Memory required for data: 114315136
I0829 11:12:47.364666 17087 layer_factory.hpp:77] Creating layer conv2/scale
I0829 11:12:47.364684 17087 net.cpp:100] Creating Layer conv2/scale
I0829 11:12:47.364696 17087 net.cpp:434] conv2/scale <- conv2
I0829 11:12:47.364712 17087 net.cpp:395] conv2/scale -> conv2 (in-place)
I0829 11:12:47.364910 17087 layer_factory.hpp:77] Creating layer conv2/scale
I0829 11:12:47.365522 17087 net.cpp:150] Setting up conv2/scale
I0829 11:12:47.365541 17087 net.cpp:157] Top shape: 16 128 25 25 (1280000)
I0829 11:12:47.365550 17087 net.cpp:165] Memory required for data: 119435136
I0829 11:12:47.365592 17087 layer_factory.hpp:77] Creating layer conv2/relu
I0829 11:12:47.365607 17087 net.cpp:100] Creating Layer conv2/relu
I0829 11:12:47.365615 17087 net.cpp:434] conv2/relu <- conv2
I0829 11:12:47.365631 17087 net.cpp:395] conv2/relu -> conv2 (in-place)
I0829 11:12:47.366575 17087 net.cpp:150] Setting up conv2/relu
I0829 11:12:47.366602 17087 net.cpp:157] Top shape: 16 128 25 25 (1280000)
I0829 11:12:47.366611 17087 net.cpp:165] Memory required for data: 124555136
I0829 11:12:47.366621 17087 layer_factory.hpp:77] Creating layer pool2
I0829 11:12:47.366641 17087 net.cpp:100] Creating Layer pool2
I0829 11:12:47.366652 17087 net.cpp:434] pool2 <- conv2
I0829 11:12:47.366667 17087 net.cpp:408] pool2 -> pool2
I0829 11:12:47.366900 17087 net.cpp:150] Setting up pool2
I0829 11:12:47.366920 17087 net.cpp:157] Top shape: 16 128 12 12 (294912)
I0829 11:12:47.366930 17087 net.cpp:165] Memory required for data: 125734784
I0829 11:12:47.366938 17087 layer_factory.hpp:77] Creating layer conv3/dw
I0829 11:12:47.366964 17087 net.cpp:100] Creating Layer conv3/dw
I0829 11:12:47.366976 17087 net.cpp:434] conv3/dw <- pool2
I0829 11:12:47.366991 17087 net.cpp:408] conv3/dw -> conv3/dw
I0829 11:12:47.827438 17087 net.cpp:150] Setting up conv3/dw
I0829 11:12:47.827477 17087 net.cpp:157] Top shape: 16 128 12 12 (294912)
I0829 11:12:47.827487 17087 net.cpp:165] Memory required for data: 126914432
I0829 11:12:47.827507 17087 layer_factory.hpp:77] Creating layer conv3/dw/bn
I0829 11:12:47.827527 17087 net.cpp:100] Creating Layer conv3/dw/bn
I0829 11:12:47.827538 17087 net.cpp:434] conv3/dw/bn <- conv3/dw
I0829 11:12:47.827571 17087 net.cpp:395] conv3/dw/bn -> conv3/dw (in-place)
I0829 11:12:47.828908 17087 net.cpp:150] Setting up conv3/dw/bn
I0829 11:12:47.828927 17087 net.cpp:157] Top shape: 16 128 12 12 (294912)
I0829 11:12:47.828935 17087 net.cpp:165] Memory required for data: 128094080
I0829 11:12:47.828954 17087 layer_factory.hpp:77] Creating layer conv3/dw/scale
I0829 11:12:47.828977 17087 net.cpp:100] Creating Layer conv3/dw/scale
I0829 11:12:47.828989 17087 net.cpp:434] conv3/dw/scale <- conv3/dw
I0829 11:12:47.829002 17087 net.cpp:395] conv3/dw/scale -> conv3/dw (in-place)
I0829 11:12:47.829222 17087 layer_factory.hpp:77] Creating layer conv3/dw/scale
I0829 11:12:47.829941 17087 net.cpp:150] Setting up conv3/dw/scale
I0829 11:12:47.829958 17087 net.cpp:157] Top shape: 16 128 12 12 (294912)
I0829 11:12:47.829967 17087 net.cpp:165] Memory required for data: 129273728
I0829 11:12:47.829982 17087 layer_factory.hpp:77] Creating layer conv3/dw/relu
I0829 11:12:47.830005 17087 net.cpp:100] Creating Layer conv3/dw/relu
I0829 11:12:47.830016 17087 net.cpp:434] conv3/dw/relu <- conv3/dw
I0829 11:12:47.830029 17087 net.cpp:395] conv3/dw/relu -> conv3/dw (in-place)
I0829 11:12:47.831728 17087 net.cpp:150] Setting up conv3/dw/relu
I0829 11:12:47.831758 17087 net.cpp:157] Top shape: 16 128 12 12 (294912)
I0829 11:12:47.831768 17087 net.cpp:165] Memory required for data: 130453376
I0829 11:12:47.831778 17087 layer_factory.hpp:77] Creating layer conv3
I0829 11:12:47.831802 17087 net.cpp:100] Creating Layer conv3
I0829 11:12:47.831816 17087 net.cpp:434] conv3 <- conv3/dw
I0829 11:12:47.831833 17087 net.cpp:408] conv3 -> conv3
I0829 11:12:47.837747 17087 net.cpp:150] Setting up conv3
I0829 11:12:47.837787 17087 net.cpp:157] Top shape: 16 128 12 12 (294912)
I0829 11:12:47.837796 17087 net.cpp:165] Memory required for data: 131633024
I0829 11:12:47.837812 17087 layer_factory.hpp:77] Creating layer conv3/bn
I0829 11:12:47.837833 17087 net.cpp:100] Creating Layer conv3/bn
I0829 11:12:47.837844 17087 net.cpp:434] conv3/bn <- conv3
I0829 11:12:47.837868 17087 net.cpp:395] conv3/bn -> conv3 (in-place)
I0829 11:12:47.839187 17087 net.cpp:150] Setting up conv3/bn
I0829 11:12:47.839205 17087 net.cpp:157] Top shape: 16 128 12 12 (294912)
I0829 11:12:47.839210 17087 net.cpp:165] Memory required for data: 132812672
I0829 11:12:47.839226 17087 layer_factory.hpp:77] Creating layer conv3/scale
I0829 11:12:47.839246 17087 net.cpp:100] Creating Layer conv3/scale
I0829 11:12:47.839293 17087 net.cpp:434] conv3/scale <- conv3
I0829 11:12:47.839310 17087 net.cpp:395] conv3/scale -> conv3 (in-place)
I0829 11:12:47.839542 17087 layer_factory.hpp:77] Creating layer conv3/scale
I0829 11:12:47.840437 17087 net.cpp:150] Setting up conv3/scale
I0829 11:12:47.840469 17087 net.cpp:157] Top shape: 16 128 12 12 (294912)
I0829 11:12:47.840478 17087 net.cpp:165] Memory required for data: 133992320
I0829 11:12:47.840507 17087 layer_factory.hpp:77] Creating layer conv3/relu
I0829 11:12:47.840523 17087 net.cpp:100] Creating Layer conv3/relu
I0829 11:12:47.840538 17087 net.cpp:434] conv3/relu <- conv3
I0829 11:12:47.840555 17087 net.cpp:395] conv3/relu -> conv3 (in-place)
I0829 11:12:47.841475 17087 net.cpp:150] Setting up conv3/relu
I0829 11:12:47.841497 17087 net.cpp:157] Top shape: 16 128 12 12 (294912)
I0829 11:12:47.841506 17087 net.cpp:165] Memory required for data: 135171968
I0829 11:12:47.841514 17087 layer_factory.hpp:77] Creating layer conv4/dw
I0829 11:12:47.841539 17087 net.cpp:100] Creating Layer conv4/dw
I0829 11:12:47.841550 17087 net.cpp:434] conv4/dw <- conv3
I0829 11:12:47.841568 17087 net.cpp:408] conv4/dw -> conv4/dw
I0829 11:12:48.313904 17087 net.cpp:150] Setting up conv4/dw
I0829 11:12:48.313941 17087 net.cpp:157] Top shape: 16 128 12 12 (294912)
I0829 11:12:48.313948 17087 net.cpp:165] Memory required for data: 136351616
I0829 11:12:48.313963 17087 layer_factory.hpp:77] Creating layer conv4/dw/bn
I0829 11:12:48.313984 17087 net.cpp:100] Creating Layer conv4/dw/bn
I0829 11:12:48.313995 17087 net.cpp:434] conv4/dw/bn <- conv4/dw
I0829 11:12:48.314011 17087 net.cpp:395] conv4/dw/bn -> conv4/dw (in-place)
I0829 11:12:48.315567 17087 net.cpp:150] Setting up conv4/dw/bn
I0829 11:12:48.315583 17087 net.cpp:157] Top shape: 16 128 12 12 (294912)
I0829 11:12:48.315588 17087 net.cpp:165] Memory required for data: 137531264
I0829 11:12:48.315600 17087 layer_factory.hpp:77] Creating layer conv4/dw/scale
I0829 11:12:48.315616 17087 net.cpp:100] Creating Layer conv4/dw/scale
I0829 11:12:48.315625 17087 net.cpp:434] conv4/dw/scale <- conv4/dw
I0829 11:12:48.315637 17087 net.cpp:395] conv4/dw/scale -> conv4/dw (in-place)
I0829 11:12:48.315937 17087 layer_factory.hpp:77] Creating layer conv4/dw/scale
I0829 11:12:48.316871 17087 net.cpp:150] Setting up conv4/dw/scale
I0829 11:12:48.316897 17087 net.cpp:157] Top shape: 16 128 12 12 (294912)
I0829 11:12:48.316905 17087 net.cpp:165] Memory required for data: 138710912
I0829 11:12:48.316922 17087 layer_factory.hpp:77] Creating layer conv4/dw/relu
I0829 11:12:48.316943 17087 net.cpp:100] Creating Layer conv4/dw/relu
I0829 11:12:48.316956 17087 net.cpp:434] conv4/dw/relu <- conv4/dw
I0829 11:12:48.316968 17087 net.cpp:395] conv4/dw/relu -> conv4/dw (in-place)
I0829 11:12:48.317994 17087 net.cpp:150] Setting up conv4/dw/relu
I0829 11:12:48.318018 17087 net.cpp:157] Top shape: 16 128 12 12 (294912)
I0829 11:12:48.318027 17087 net.cpp:165] Memory required for data: 139890560
I0829 11:12:48.318037 17087 layer_factory.hpp:77] Creating layer conv4
I0829 11:12:48.318066 17087 net.cpp:100] Creating Layer conv4
I0829 11:12:48.318083 17087 net.cpp:434] conv4 <- conv4/dw
I0829 11:12:48.318099 17087 net.cpp:408] conv4 -> conv4
I0829 11:12:48.324007 17087 net.cpp:150] Setting up conv4
I0829 11:12:48.324043 17087 net.cpp:157] Top shape: 16 128 12 12 (294912)
I0829 11:12:48.324048 17087 net.cpp:165] Memory required for data: 141070208
I0829 11:12:48.324061 17087 layer_factory.hpp:77] Creating layer conv4/bn
I0829 11:12:48.324077 17087 net.cpp:100] Creating Layer conv4/bn
I0829 11:12:48.324087 17087 net.cpp:434] conv4/bn <- conv4
I0829 11:12:48.324102 17087 net.cpp:395] conv4/bn -> conv4 (in-place)
I0829 11:12:48.325624 17087 net.cpp:150] Setting up conv4/bn
I0829 11:12:48.325640 17087 net.cpp:157] Top shape: 16 128 12 12 (294912)
I0829 11:12:48.325644 17087 net.cpp:165] Memory required for data: 142249856
I0829 11:12:48.325656 17087 layer_factory.hpp:77] Creating layer conv4/scale
I0829 11:12:48.325670 17087 net.cpp:100] Creating Layer conv4/scale
I0829 11:12:48.325706 17087 net.cpp:434] conv4/scale <- conv4
I0829 11:12:48.325722 17087 net.cpp:395] conv4/scale -> conv4 (in-place)
I0829 11:12:48.325970 17087 layer_factory.hpp:77] Creating layer conv4/scale
I0829 11:12:48.326799 17087 net.cpp:150] Setting up conv4/scale
I0829 11:12:48.326814 17087 net.cpp:157] Top shape: 16 128 12 12 (294912)
I0829 11:12:48.326818 17087 net.cpp:165] Memory required for data: 143429504
I0829 11:12:48.326829 17087 layer_factory.hpp:77] Creating layer conv4/relu
I0829 11:12:48.326843 17087 net.cpp:100] Creating Layer conv4/relu
I0829 11:12:48.326850 17087 net.cpp:434] conv4/relu <- conv4
I0829 11:12:48.326865 17087 net.cpp:395] conv4/relu -> conv4 (in-place)
I0829 11:12:48.327764 17087 net.cpp:150] Setting up conv4/relu
I0829 11:12:48.327785 17087 net.cpp:157] Top shape: 16 128 12 12 (294912)
I0829 11:12:48.327790 17087 net.cpp:165] Memory required for data: 144609152
I0829 11:12:48.327795 17087 layer_factory.hpp:77] Creating layer conv5/dw
I0829 11:12:48.327827 17087 net.cpp:100] Creating Layer conv5/dw
I0829 11:12:48.327839 17087 net.cpp:434] conv5/dw <- conv4
I0829 11:12:48.327852 17087 net.cpp:408] conv5/dw -> conv5/dw
I0829 11:12:48.806025 17087 net.cpp:150] Setting up conv5/dw
I0829 11:12:48.806061 17087 net.cpp:157] Top shape: 16 128 12 12 (294912)
I0829 11:12:48.806068 17087 net.cpp:165] Memory required for data: 145788800
I0829 11:12:48.806083 17087 layer_factory.hpp:77] Creating layer conv5/dw/bn
I0829 11:12:48.806097 17087 net.cpp:100] Creating Layer conv5/dw/bn
I0829 11:12:48.806105 17087 net.cpp:434] conv5/dw/bn <- conv5/dw
I0829 11:12:48.806123 17087 net.cpp:395] conv5/dw/bn -> conv5/dw (in-place)
I0829 11:12:48.807984 17087 net.cpp:150] Setting up conv5/dw/bn
I0829 11:12:48.808006 17087 net.cpp:157] Top shape: 16 128 12 12 (294912)
I0829 11:12:48.808010 17087 net.cpp:165] Memory required for data: 146968448
I0829 11:12:48.808022 17087 layer_factory.hpp:77] Creating layer conv5/dw/scale
I0829 11:12:48.808034 17087 net.cpp:100] Creating Layer conv5/dw/scale
I0829 11:12:48.808040 17087 net.cpp:434] conv5/dw/scale <- conv5/dw
I0829 11:12:48.808053 17087 net.cpp:395] conv5/dw/scale -> conv5/dw (in-place)
I0829 11:12:48.808336 17087 layer_factory.hpp:77] Creating layer conv5/dw/scale
I0829 11:12:48.809293 17087 net.cpp:150] Setting up conv5/dw/scale
I0829 11:12:48.809309 17087 net.cpp:157] Top shape: 16 128 12 12 (294912)
I0829 11:12:48.809314 17087 net.cpp:165] Memory required for data: 148148096
I0829 11:12:48.809327 17087 layer_factory.hpp:77] Creating layer conv5/dw/relu
I0829 11:12:48.809343 17087 net.cpp:100] Creating Layer conv5/dw/relu
I0829 11:12:48.809355 17087 net.cpp:434] conv5/dw/relu <- conv5/dw
I0829 11:12:48.809370 17087 net.cpp:395] conv5/dw/relu -> conv5/dw (in-place)
I0829 11:12:48.811159 17087 net.cpp:150] Setting up conv5/dw/relu
I0829 11:12:48.811183 17087 net.cpp:157] Top shape: 16 128 12 12 (294912)
I0829 11:12:48.811189 17087 net.cpp:165] Memory required for data: 149327744
I0829 11:12:48.811198 17087 layer_factory.hpp:77] Creating layer conv5
I0829 11:12:48.811223 17087 net.cpp:100] Creating Layer conv5
I0829 11:12:48.811237 17087 net.cpp:434] conv5 <- conv5/dw
I0829 11:12:48.811256 17087 net.cpp:408] conv5 -> conv5
I0829 11:12:48.818357 17087 net.cpp:150] Setting up conv5
I0829 11:12:48.818403 17087 net.cpp:157] Top shape: 16 256 12 12 (589824)
I0829 11:12:48.818411 17087 net.cpp:165] Memory required for data: 151687040
I0829 11:12:48.818429 17087 layer_factory.hpp:77] Creating layer conv5/bn
I0829 11:12:48.818446 17087 net.cpp:100] Creating Layer conv5/bn
I0829 11:12:48.818469 17087 net.cpp:434] conv5/bn <- conv5
I0829 11:12:48.818488 17087 net.cpp:395] conv5/bn -> conv5 (in-place)
I0829 11:12:48.820641 17087 net.cpp:150] Setting up conv5/bn
I0829 11:12:48.820675 17087 net.cpp:157] Top shape: 16 256 12 12 (589824)
I0829 11:12:48.820682 17087 net.cpp:165] Memory required for data: 154046336
I0829 11:12:48.820700 17087 layer_factory.hpp:77] Creating layer conv5/scale
I0829 11:12:48.820719 17087 net.cpp:100] Creating Layer conv5/scale
I0829 11:12:48.820730 17087 net.cpp:434] conv5/scale <- conv5
I0829 11:12:48.820771 17087 net.cpp:395] conv5/scale -> conv5 (in-place)
I0829 11:12:48.821051 17087 layer_factory.hpp:77] Creating layer conv5/scale
I0829 11:12:48.822024 17087 net.cpp:150] Setting up conv5/scale
I0829 11:12:48.822047 17087 net.cpp:157] Top shape: 16 256 12 12 (589824)
I0829 11:12:48.822055 17087 net.cpp:165] Memory required for data: 156405632
I0829 11:12:48.822072 17087 layer_factory.hpp:77] Creating layer conv5/relu
I0829 11:12:48.822111 17087 net.cpp:100] Creating Layer conv5/relu
I0829 11:12:48.822122 17087 net.cpp:434] conv5/relu <- conv5
I0829 11:12:48.822139 17087 net.cpp:395] conv5/relu -> conv5 (in-place)
I0829 11:12:48.823122 17087 net.cpp:150] Setting up conv5/relu
I0829 11:12:48.823149 17087 net.cpp:157] Top shape: 16 256 12 12 (589824)
I0829 11:12:48.823158 17087 net.cpp:165] Memory required for data: 158764928
I0829 11:12:48.823168 17087 layer_factory.hpp:77] Creating layer pool5
I0829 11:12:48.823190 17087 net.cpp:100] Creating Layer pool5
I0829 11:12:48.823200 17087 net.cpp:434] pool5 <- conv5
I0829 11:12:48.823215 17087 net.cpp:408] pool5 -> pool5
I0829 11:12:48.823549 17087 net.cpp:150] Setting up pool5
I0829 11:12:48.823568 17087 net.cpp:157] Top shape: 16 256 6 6 (147456)
I0829 11:12:48.823576 17087 net.cpp:165] Memory required for data: 159354752
I0829 11:12:48.823585 17087 layer_factory.hpp:77] Creating layer fc6
I0829 11:12:48.823606 17087 net.cpp:100] Creating Layer fc6
I0829 11:12:48.823616 17087 net.cpp:434] fc6 <- pool5
I0829 11:12:48.823632 17087 net.cpp:408] fc6 -> fc6
I0829 11:12:49.174456 17087 net.cpp:150] Setting up fc6
I0829 11:12:49.174499 17087 net.cpp:157] Top shape: 16 2048 (32768)
I0829 11:12:49.174509 17087 net.cpp:165] Memory required for data: 159485824
I0829 11:12:49.174528 17087 layer_factory.hpp:77] Creating layer relu6
I0829 11:12:49.174546 17087 net.cpp:100] Creating Layer relu6
I0829 11:12:49.174556 17087 net.cpp:434] relu6 <- fc6
I0829 11:12:49.174571 17087 net.cpp:395] relu6 -> fc6 (in-place)
I0829 11:12:49.175549 17087 net.cpp:150] Setting up relu6
I0829 11:12:49.175575 17087 net.cpp:157] Top shape: 16 2048 (32768)
I0829 11:12:49.175582 17087 net.cpp:165] Memory required for data: 159616896
I0829 11:12:49.175591 17087 layer_factory.hpp:77] Creating layer drop6
I0829 11:12:49.175606 17087 net.cpp:100] Creating Layer drop6
I0829 11:12:49.175624 17087 net.cpp:434] drop6 <- fc6
I0829 11:12:49.175639 17087 net.cpp:395] drop6 -> fc6 (in-place)
I0829 11:12:49.175801 17087 net.cpp:150] Setting up drop6
I0829 11:12:49.175817 17087 net.cpp:157] Top shape: 16 2048 (32768)
I0829 11:12:49.175823 17087 net.cpp:165] Memory required for data: 159747968
I0829 11:12:49.175832 17087 layer_factory.hpp:77] Creating layer fc7
I0829 11:12:49.175851 17087 net.cpp:100] Creating Layer fc7
I0829 11:12:49.175861 17087 net.cpp:434] fc7 <- fc6
I0829 11:12:49.175876 17087 net.cpp:408] fc7 -> fc7
I0829 11:12:49.327654 17087 net.cpp:150] Setting up fc7
I0829 11:12:49.327694 17087 net.cpp:157] Top shape: 16 4096 (65536)
I0829 11:12:49.327702 17087 net.cpp:165] Memory required for data: 160010112
I0829 11:12:49.327724 17087 layer_factory.hpp:77] Creating layer relu7
I0829 11:12:49.327742 17087 net.cpp:100] Creating Layer relu7
I0829 11:12:49.327752 17087 net.cpp:434] relu7 <- fc7
I0829 11:12:49.327767 17087 net.cpp:395] relu7 -> fc7 (in-place)
I0829 11:12:49.329732 17087 net.cpp:150] Setting up relu7
I0829 11:12:49.329757 17087 net.cpp:157] Top shape: 16 4096 (65536)
I0829 11:12:49.329763 17087 net.cpp:165] Memory required for data: 160272256
I0829 11:12:49.329769 17087 layer_factory.hpp:77] Creating layer drop7
I0829 11:12:49.329782 17087 net.cpp:100] Creating Layer drop7
I0829 11:12:49.329788 17087 net.cpp:434] drop7 <- fc7
I0829 11:12:49.329805 17087 net.cpp:395] drop7 -> fc7 (in-place)
I0829 11:12:49.329970 17087 net.cpp:150] Setting up drop7
I0829 11:12:49.329988 17087 net.cpp:157] Top shape: 16 4096 (65536)
I0829 11:12:49.329993 17087 net.cpp:165] Memory required for data: 160534400
I0829 11:12:49.329998 17087 layer_factory.hpp:77] Creating layer fc8
I0829 11:12:49.330034 17087 net.cpp:100] Creating Layer fc8
I0829 11:12:49.330049 17087 net.cpp:434] fc8 <- fc7
I0829 11:12:49.330065 17087 net.cpp:408] fc8 -> fc8
I0829 11:12:49.406708 17087 net.cpp:150] Setting up fc8
I0829 11:12:49.406747 17087 net.cpp:157] Top shape: 16 1000 (16000)
I0829 11:12:49.406755 17087 net.cpp:165] Memory required for data: 160598400
I0829 11:12:49.406797 17087 layer_factory.hpp:77] Creating layer fc8_fc8_0_split
I0829 11:12:49.406821 17087 net.cpp:100] Creating Layer fc8_fc8_0_split
I0829 11:12:49.406834 17087 net.cpp:434] fc8_fc8_0_split <- fc8
I0829 11:12:49.406849 17087 net.cpp:408] fc8_fc8_0_split -> fc8_fc8_0_split_0
I0829 11:12:49.406872 17087 net.cpp:408] fc8_fc8_0_split -> fc8_fc8_0_split_1
I0829 11:12:49.407153 17087 net.cpp:150] Setting up fc8_fc8_0_split
I0829 11:12:49.407169 17087 net.cpp:157] Top shape: 16 1000 (16000)
I0829 11:12:49.407179 17087 net.cpp:157] Top shape: 16 1000 (16000)
I0829 11:12:49.407186 17087 net.cpp:165] Memory required for data: 160726400
I0829 11:12:49.407194 17087 layer_factory.hpp:77] Creating layer accuracy
I0829 11:12:49.407210 17087 net.cpp:100] Creating Layer accuracy
I0829 11:12:49.407248 17087 net.cpp:434] accuracy <- fc8_fc8_0_split_0
I0829 11:12:49.407261 17087 net.cpp:434] accuracy <- label_data_1_split_0
I0829 11:12:49.407271 17087 net.cpp:408] accuracy -> accuracy
…
